ST Edge AI Core v4.0.0-20500 359356bb0
Created date          : 2026-05-14 11:28:42
Parameters            : generate --model enhanced_label_sb/onnx/generator_static_int8.onnx --target stm32n6 --st-neural-art=-E --binary --workspace workspace_gen --output st_ai_output

Exec/report summary (generate)
-----------------------------------------------------------------------------------------------------------------
model file         :   /home/pc/sby/enhancedoptimaltransport/enhanced_label_sb/onnx/generator_static_int8.onnx   
type               :   onnx                                                                                      
c_name             :   network                                                                                   
compression        :   lossless                                                                                  
options            :   allocate-inputs, allocate-outputs, use-lite-runtime, use-st-ai                            
optimization       :   balanced                                                                                  
target/series      :   stm32n6                                                                                   
workspace dir      :   /home/pc/sby/enhancedoptimaltransport/workspace_gen                                       
output dir         :   /home/pc/sby/enhancedoptimaltransport/st_ai_output                                        
model_fmt          :   ss/ss per tensor                                                                          
model_name         :   generator_static_int8                                                                     
model_hash         :   0xf3df133cd2039771f9aa59b82a466f27                                                        
params #           :   9,393,078 items (35.83 MiB)                                                               
-----------------------------------------------------------------------------------------------------------------
input 1/2          :   'z', int8(1x8x12x12), 1.12 KBytes, QLinear(0.036182683,0,int8), activations               
input 2/2          :   'text_embedding', int8(1x512), 512 Bytes, QLinear(0.001392632,0,int8), activations        
inputs (total)     :   1.62 KBytes                                                                               
output 1/1         :   'reconstruction_Transpose_0', f32(1x3x96x96), 108.00 KBytes, activations                  
macc               :   559,294,868,307                                                                           
weights (ro)       :   12,248,936 B (11.68 MiB) (1 segment) / -25,323,376(-67.4%) vs float model                 
activations (rw)   :   7,373,408 B (7.03 MiB) (1 segment) *                                                      
ram (total)        :   7,373,408 B (7.03 MiB) = 7,373,408 + 0 + 0                                                
-----------------------------------------------------------------------------------------------------------------
(*) 'input'/'output' buffers are allocated in the activations buffer

Model name - generator_static_int8
------ ------------------------------------------------------------------------------- ------------------------------- ---------------------- ------------- -------------------------------- --- ----------------------- ------------------------------ ---------------------------------------------------------------------------------------------------------------------------------------------------------------------------------------------------------------------------- 
m_id   layer (type,original)                                                           oshape                          param/size                      macc                     connected to   | c_size                  c_macc                         c_type                                                                                                                                                                                                                       
------ ------------------------------------------------------------------------------- ------------------------------- ---------------------- ------------- -------------------------------- --- ----------------------- ------------------------------ ---------------------------------------------------------------------------------------------------------------------------------------------------------------------------------------------------------------------------- 
75     vae_cond_proj_0_bias (Placeholder, Gemm)                                        [b:128]                         128/512                                                                 | +294,912(+57600.0%)     +74,112(+100.0%)               Dense_/Conversion_[10, 11]                                                                                                                                                                                                   
------ ------------------------------------------------------------------------------- ------------------------------- ---------------------- ------------- -------------------------------- --- ----------------------- ------------------------------ ---------------------------------------------------------------------------------------------------------------------------------------------------------------------------------------------------------------------------- 
100    vae_cond_proj_2_bias (Placeholder, Gemm)                                        [b:512]                         512/2,048                                                               | +262,144(+12800.0%)     +66,048(+100.0%)               Dense_[15]                                                                                                                                                                                                                   
------ ------------------------------------------------------------------------------- ------------------------------- ---------------------- ------------- -------------------------------- --- ----------------------- ------------------------------ ---------------------------------------------------------------------------------------------------------------------------------------------------------------------------------------------------------------------------- 
103    vae_dec_blocks_1_l..roj_0_bias (Placeholder, Gemm)                              [b:512]                         512/2,048                                                               | +1,048,576(+51200.0%)   +263,680(+100.0%)              Dense_/Conversion_[16, 17]                                                                                                                                                                                                   
------ ------------------------------------------------------------------------------- ------------------------------- ---------------------- ------------- -------------------------------- --- ----------------------- ------------------------------ ---------------------------------------------------------------------------------------------------------------------------------------------------------------------------------------------------------------------------- 
109    vae_dec_blocks_4_l..roj_0_bias (Placeholder, Gemm)                              [b:256]                         256/1,024                                                               | +524,288(+51200.0%)     +131,840(+100.0%)              Dense_/Conversion_[26, 27]                                                                                                                                                                                                   
------ ------------------------------------------------------------------------------- ------------------------------- ---------------------- ------------- -------------------------------- --- ----------------------- ------------------------------ ---------------------------------------------------------------------------------------------------------------------------------------------------------------------------------------------------------------------------- 
115    vae_dec_blocks_7_l..roj_0_bias (Placeholder, Gemm)                              [b:128]                         128/512                                                                 | +262,144(+51200.0%)     +65,920(+100.0%)               Dense_/Conversion_[36, 37]                                                                                                                                                                                                   
------ ------------------------------------------------------------------------------- ------------------------------- ---------------------- ------------- -------------------------------- --- ----------------------- ------------------------------ ---------------------------------------------------------------------------------------------------------------------------------------------------------------------------------------------------------------------------- 
124    vae_dec_blocks_1_l..roj_2_bias (Placeholder, Gemm)                              [b:512]                         512/2,048                                                               | +1,048,576(+51200.0%)   +263,680(+100.0%)              Dense_/Conversion_[21, 22]                                                                                                                                                                                                   
------ ------------------------------------------------------------------------------- ------------------------------- ---------------------- ------------- -------------------------------- --- ----------------------- ------------------------------ ---------------------------------------------------------------------------------------------------------------------------------------------------------------------------------------------------------------------------- 
139    vae_dec_blocks_4_l..roj_2_bias (Placeholder, Gemm)                              [b:256]                         256/1,024                                                               | +262,144(+25600.0%)     +66,304(+100.0%)               Dense_/Conversion_[31, 32]                                                                                                                                                                                                   
------ ------------------------------------------------------------------------------- ------------------------------- ---------------------- ------------- -------------------------------- --- ----------------------- ------------------------------ ---------------------------------------------------------------------------------------------------------------------------------------------------------------------------------------------------------------------------- 
154    vae_dec_blocks_7_l..roj_2_bias (Placeholder, Gemm)                              [b:128]                         128/512                                                                 | +65,536(+12800.0%)      +16,768(+100.0%)               Dense_/Conversion_[41, 42]                                                                                                                                                                                                   
------ ------------------------------------------------------------------------------- ------------------------------- ---------------------- ------------- -------------------------------- --- ----------------------- ------------------------------ ---------------------------------------------------------------------------------------------------------------------------------------------------------------------------------------------------------------------------- 
265    onnxSub_1062 (Placeholder, Sub)                                                 [b:1,h:1,w:1,c:256]             256/1,024                                                               |                         +147,456(+100.0%)              Eltwise/sub_[95]                                                                                                                                                                                                             
------ ------------------------------------------------------------------------------- ------------------------------- ---------------------- ------------- -------------------------------- --- ----------------------- ------------------------------ ---------------------------------------------------------------------------------------------------------------------------------------------------------------------------------------------------------------------------- 
266    _dec_blocks_1_resc..v_output_0 (Placeholder, Div)                               [b:1,h:1,w:1,c:256]             256/1,024                                                               |                         +1,032,192(+100.0%)            Eltwise/div_/Conversion_[96, 97]                                                                                                                                                                                             
------ ------------------------------------------------------------------------------- ------------------------------- ---------------------- ------------- -------------------------------- --- ----------------------- ------------------------------ ---------------------------------------------------------------------------------------------------------------------------------------------------------------------------------------------------------------------------- 
273    vae_dec_blocks_2_ln_h_bias (Placeholder, LayerNormalization)                    [b:256]                         256/1,024                                                               | +1,408(+137.5%)         +1,412,928(+100.0%)            Transpose_/Conversion_/Reduce_/ScaleBias_/Eltwise/sub_/Eltwise/mul_/Reduce_/ScaleBias_/Nonlinearity_/Nonlinearity_/Eltwise/mul_/Eltwise/mul_/Eltwise/add_[98, 99, 100, 101, 102, 103, 104, 105, 106, 107, 108, 109, 110]     
------ ------------------------------------------------------------------------------- ------------------------------- ---------------------- ------------- -------------------------------- --- ----------------------- ------------------------------ ---------------------------------------------------------------------------------------------------------------------------------------------------------------------------------------------------------------------------- 
351    vae_dec_blocks_2_ln_w_bias (Placeholder, LayerNormalization)                    [b:256]                         256/1,024                                                               | +1,408(+137.5%)         +1,412,928(+100.0%)            Transpose_/Conversion_/Reduce_/ScaleBias_/Eltwise/sub_/Eltwise/mul_/Reduce_/ScaleBias_/Nonlinearity_/Nonlinearity_/Eltwise/mul_/Eltwise/mul_/Eltwise/add_[148, 149, 150, 151, 152, 153, 154, 155, 156, 157, 158, 159, 160]   
------ ------------------------------------------------------------------------------- ------------------------------- ---------------------- ------------- -------------------------------- --- ----------------------- ------------------------------ ---------------------------------------------------------------------------------------------------------------------------------------------------------------------------------------------------------------------------- 
507    onnxSub_1095 (Placeholder, Sub)                                                 [b:1,h:1,w:1,c:128]             128/512                                                                 |                         +294,912(+100.0%)              Eltwise/sub_[239]                                                                                                                                                                                                            
------ ------------------------------------------------------------------------------- ------------------------------- ---------------------- ------------- -------------------------------- --- ----------------------- ------------------------------ ---------------------------------------------------------------------------------------------------------------------------------------------------------------------------------------------------------------------------- 
508    _dec_blocks_4_resc..v_output_0 (Placeholder, Div)                               [b:1,h:1,w:1,c:128]             128/512                                                                 |                         +2,064,384(+100.0%)            Eltwise/div_/Conversion_[240, 241]                                                                                                                                                                                           
------ ------------------------------------------------------------------------------- ------------------------------- ---------------------- ------------- -------------------------------- --- ----------------------- ------------------------------ ---------------------------------------------------------------------------------------------------------------------------------------------------------------------------------------------------------------------------- 
515    vae_dec_blocks_5_ln_h_bias (Placeholder, LayerNormalization)                    [b:128]                         128/512                                                                 | +1,280(+250.0%)         +2,850,048(+100.0%)            Transpose_/Conversion_/Reduce_/ScaleBias_/Eltwise/sub_/Eltwise/mul_/Reduce_/ScaleBias_/Nonlinearity_/Nonlinearity_/Eltwise/mul_/Eltwise/mul_/Eltwise/add_[242, 243, 244, 245, 246, 247, 248, 249, 250, 251, 252, 253, 254]   
------ ------------------------------------------------------------------------------- ------------------------------- ---------------------- ------------- -------------------------------- --- ----------------------- ------------------------------ ---------------------------------------------------------------------------------------------------------------------------------------------------------------------------------------------------------------------------- 
593    vae_dec_blocks_5_ln_w_bias (Placeholder, LayerNormalization)                    [b:128]                         128/512                                                                 | +1,280(+250.0%)         +2,850,048(+100.0%)            Transpose_/Conversion_/Reduce_/ScaleBias_/Eltwise/sub_/Eltwise/mul_/Reduce_/ScaleBias_/Nonlinearity_/Nonlinearity_/Eltwise/mul_/Eltwise/mul_/Eltwise/add_[292, 293, 294, 295, 296, 297, 298, 299, 300, 301, 302, 303, 304]   
------ ------------------------------------------------------------------------------- ------------------------------- ---------------------- ------------- -------------------------------- --- ----------------------- ------------------------------ ---------------------------------------------------------------------------------------------------------------------------------------------------------------------------------------------------------------------------- 
749    onnxSub_1128 (Placeholder, Sub)                                                 [b:1,h:1,w:1,c:64]              64/256                                                                  |                         +589,824(+100.0%)              Eltwise/sub_[383]                                                                                                                                                                                                            
------ ------------------------------------------------------------------------------- ------------------------------- ---------------------- ------------- -------------------------------- --- ----------------------- ------------------------------ ---------------------------------------------------------------------------------------------------------------------------------------------------------------------------------------------------------------------------- 
750    _dec_blocks_7_resc..v_output_0 (Placeholder, Div)                               [b:1,h:1,w:1,c:64]              64/256                                                                  |                         +4,128,768(+100.0%)            Eltwise/div_/Conversion_[384, 385]                                                                                                                                                                                           
------ ------------------------------------------------------------------------------- ------------------------------- ---------------------- ------------- -------------------------------- --- ----------------------- ------------------------------ ---------------------------------------------------------------------------------------------------------------------------------------------------------------------------------------------------------------------------- 
0      z (Input, )                                                                     [b:1,h:8,w:12,c:12]                                                                                     |                                                        
       text_embedding (Input, )                                                        [b:1,c:512]                                                                                             |                                                        
------ ------------------------------------------------------------------------------- ------------------------------- ---------------------- ------------- -------------------------------- --- ----------------------- ------------------------------ ---------------------------------------------------------------------------------------------------------------------------------------------------------------------------------------------------------------------------- 
1      _dec_blocks_1_Cons..tput_const (Placeholder, DequantizeLinear)                  []                              1/4                                                                     | -4(-100.0%)             +13,824(+100.0%)               Transpose_[o][389]                                                                                                                                                                                                           
------ ------------------------------------------------------------------------------- ------------------------------- ---------------------- ------------- -------------------------------- --- ----------------------- ------------------------------ ---------------------------------------------------------------------------------------------------------------------------------------------------------------------------------------------------------------------------- 
2      _dec_blocks_2_Sqrt..tput_const (Placeholder, DequantizeLinear)                  [b:1]                           1/4                                                                     | -4(-100.0%)                                            
------ ------------------------------------------------------------------------------- ------------------------------- ---------------------- ------------- -------------------------------- --- ----------------------- ------------------------------ ---------------------------------------------------------------------------------------------------------------------------------------------------------------------------------------------------------------------------- 
3      _dec_blocks_5_Sqrt..tput_const (Placeholder, DequantizeLinear)                  [b:1]                           1/4                                                                     | -4(-100.0%)                                            
------ ------------------------------------------------------------------------------- ------------------------------- ---------------------- ------------- -------------------------------- --- ----------------------- ------------------------------ ---------------------------------------------------------------------------------------------------------------------------------------------------------------------------------------------------------------------------- 
5      onnxAdd_1042_Dequa..tput_const (Placeholder, DequantizeLinear)                  [b:8,h:1,c:1]                   8/32                                                                    | -32(-100.0%)                                           
------ ------------------------------------------------------------------------------- ------------------------------- ---------------------- ------------- -------------------------------- --- ----------------------- ------------------------------ ---------------------------------------------------------------------------------------------------------------------------------------------------------------------------------------------------------------------------- 
6      onnxAdd_1044_Dequa..tput_const (Placeholder, DequantizeLinear)                  [b:256,h:1,c:1]                 256/1,024                                                               | -1,024(-100.0%)                                        
------ ------------------------------------------------------------------------------- ------------------------------- ---------------------- ------------- -------------------------------- --- ----------------------- ------------------------------ ---------------------------------------------------------------------------------------------------------------------------------------------------------------------------------------------------------------------------- 
7      onnxAdd_1046_Dequa..tput_const (Placeholder, DequantizeLinear)                  [b:256,h:1,c:1]                 256/1,024                                                               | -1,024(-100.0%)                                        
------ ------------------------------------------------------------------------------- ------------------------------- ---------------------- ------------- -------------------------------- --- ----------------------- ------------------------------ ---------------------------------------------------------------------------------------------------------------------------------------------------------------------------------------------------------------------------- 
8      onnxAdd_1058_Dequa..tput_const (Placeholder, DequantizeLinear)                  [b:256,h:1,c:1]                 256/1,024                                                               | -1,024(-100.0%)                                        
------ ------------------------------------------------------------------------------- ------------------------------- ---------------------- ------------- -------------------------------- --- ----------------------- ------------------------------ ---------------------------------------------------------------------------------------------------------------------------------------------------------------------------------------------------------------------------- 
9      onnxAdd_1077_Dequa..tput_const (Placeholder, DequantizeLinear)                  [b:128,h:1,c:1]                 128/512                                                                 | -512(-100.0%)                                          
------ ------------------------------------------------------------------------------- ------------------------------- ---------------------- ------------- -------------------------------- --- ----------------------- ------------------------------ ---------------------------------------------------------------------------------------------------------------------------------------------------------------------------------------------------------------------------- 
10     onnxAdd_1079_Dequa..tput_const (Placeholder, DequantizeLinear)                  [b:128,h:1,c:1]                 128/512                                                                 | -512(-100.0%)                                          
------ ------------------------------------------------------------------------------- ------------------------------- ---------------------- ------------- -------------------------------- --- ----------------------- ------------------------------ ---------------------------------------------------------------------------------------------------------------------------------------------------------------------------------------------------------------------------- 
11     onnxAdd_1091_Dequa..tput_const (Placeholder, DequantizeLinear)                  [b:128,h:1,c:1]                 128/512                                                                 | -512(-100.0%)                                          
------ ------------------------------------------------------------------------------- ------------------------------- ---------------------- ------------- -------------------------------- --- ----------------------- ------------------------------ ---------------------------------------------------------------------------------------------------------------------------------------------------------------------------------------------------------------------------- 
12     onnxAdd_1110_Dequa..tput_const (Placeholder, DequantizeLinear)                  [b:64,h:1,c:1]                  64/256                                                                  | -256(-100.0%)                                          
------ ------------------------------------------------------------------------------- ------------------------------- ---------------------- ------------- -------------------------------- --- ----------------------- ------------------------------ ---------------------------------------------------------------------------------------------------------------------------------------------------------------------------------------------------------------------------- 
13     onnxAdd_1112_Dequa..tput_const (Placeholder, DequantizeLinear)                  [b:64,h:1,c:1]                  64/256                                                                  | -256(-100.0%)                                          
------ ------------------------------------------------------------------------------- ------------------------------- ---------------------- ------------- -------------------------------- --- ----------------------- ------------------------------ ---------------------------------------------------------------------------------------------------------------------------------------------------------------------------------------------------------------------------- 
14     onnxAdd_1124_Dequa..tput_const (Placeholder, DequantizeLinear)                  [b:64,h:1,c:1]                  64/256                                                                  | -256(-100.0%)                                          
------ ------------------------------------------------------------------------------- ------------------------------- ---------------------- ------------- -------------------------------- --- ----------------------- ------------------------------ ---------------------------------------------------------------------------------------------------------------------------------------------------------------------------------------------------------------------------- 
15     onnxConcat_1040_De..tput_const (Placeholder, DequantizeLinear)                  [b:1,c:64]                      64/256                                                                  | -256(-100.0%)                                          
------ ------------------------------------------------------------------------------- ------------------------------- ---------------------- ------------- -------------------------------- --- ----------------------- ------------------------------ ---------------------------------------------------------------------------------------------------------------------------------------------------------------------------------------------------------------------------- 
16     onnxMatMul_1066_De..tput_const (Placeholder, DequantizeLinear)                  [b:256,c:768]                   196,608/786,432                                                         | -786,432(-100.0%)                                      
------ ------------------------------------------------------------------------------- ------------------------------- ---------------------- ------------- -------------------------------- --- ----------------------- ------------------------------ ---------------------------------------------------------------------------------------------------------------------------------------------------------------------------------------------------------------------------- 
17     onnxMatMul_1070_De..tput_const (Placeholder, DequantizeLinear)                  [b:256,c:256]                   65,536/262,144                                                          | -262,144(-100.0%)                                      
------ ------------------------------------------------------------------------------- ------------------------------- ---------------------- ------------- -------------------------------- --- ----------------------- ------------------------------ ---------------------------------------------------------------------------------------------------------------------------------------------------------------------------------------------------------------------------- 
18     onnxMatMul_1071_De..tput_const (Placeholder, DequantizeLinear)                  [b:256,c:768]                   196,608/786,432                                                         | -786,432(-100.0%)                                      
------ ------------------------------------------------------------------------------- ------------------------------- ---------------------- ------------- -------------------------------- --- ----------------------- ------------------------------ ---------------------------------------------------------------------------------------------------------------------------------------------------------------------------------------------------------------------------- 
19     onnxMatMul_1075_De..tput_const (Placeholder, DequantizeLinear)                  [b:256,c:256]                   65,536/262,144                                                          | -262,144(-100.0%)                                      
------ ------------------------------------------------------------------------------- ------------------------------- ---------------------- ------------- -------------------------------- --- ----------------------- ------------------------------ ---------------------------------------------------------------------------------------------------------------------------------------------------------------------------------------------------------------------------- 
20     onnxMatMul_1099_De..tput_const (Placeholder, DequantizeLinear)                  [b:128,c:384]                   49,152/196,608                                                          | -196,608(-100.0%)                                      
------ ------------------------------------------------------------------------------- ------------------------------- ---------------------- ------------- -------------------------------- --- ----------------------- ------------------------------ ---------------------------------------------------------------------------------------------------------------------------------------------------------------------------------------------------------------------------- 
21     onnxMatMul_1103_De..tput_const (Placeholder, DequantizeLinear)                  [b:128,c:128]                   16,384/65,536                                                           | -65,536(-100.0%)                                       
------ ------------------------------------------------------------------------------- ------------------------------- ---------------------- ------------- -------------------------------- --- ----------------------- ------------------------------ ---------------------------------------------------------------------------------------------------------------------------------------------------------------------------------------------------------------------------- 
22     onnxMatMul_1104_De..tput_const (Placeholder, DequantizeLinear)                  [b:128,c:384]                   49,152/196,608                                                          | -196,608(-100.0%)                                      
------ ------------------------------------------------------------------------------- ------------------------------- ---------------------- ------------- -------------------------------- --- ----------------------- ------------------------------ ---------------------------------------------------------------------------------------------------------------------------------------------------------------------------------------------------------------------------- 
23     onnxMatMul_1108_De..tput_const (Placeholder, DequantizeLinear)                  [b:128,c:128]                   16,384/65,536                                                           | -65,536(-100.0%)                                       
------ ------------------------------------------------------------------------------- ------------------------------- ---------------------- ------------- -------------------------------- --- ----------------------- ------------------------------ ---------------------------------------------------------------------------------------------------------------------------------------------------------------------------------------------------------------------------- 
24     onnxMul_1041_Dequa..tput_const (Placeholder, DequantizeLinear)                  [b:8,h:1,c:1]                   8/32                                                                    | -32(-100.0%)                                           
------ ------------------------------------------------------------------------------- ------------------------------- ---------------------- ------------- -------------------------------- --- ----------------------- ------------------------------ ---------------------------------------------------------------------------------------------------------------------------------------------------------------------------------------------------------------------------- 
25     onnxMul_1043_Dequa..tput_const (Placeholder, DequantizeLinear)                  [b:256,h:1,c:1]                 256/1,024                                                               | -1,024(-100.0%)                                        
------ ------------------------------------------------------------------------------- ------------------------------- ---------------------- ------------- -------------------------------- --- ----------------------- ------------------------------ ---------------------------------------------------------------------------------------------------------------------------------------------------------------------------------------------------------------------------- 
26     onnxMul_1045_Dequa..tput_const (Placeholder, DequantizeLinear)                  [b:256,h:1,c:1]                 256/1,024                                                               | -1,024(-100.0%)                                        
------ ------------------------------------------------------------------------------- ------------------------------- ---------------------- ------------- -------------------------------- --- ----------------------- ------------------------------ ---------------------------------------------------------------------------------------------------------------------------------------------------------------------------------------------------------------------------- 
27     onnxMul_1057_Dequa..tput_const (Placeholder, DequantizeLinear)                  [b:256,h:1,c:1]                 256/1,024                                                               | -1,024(-100.0%)                                        
------ ------------------------------------------------------------------------------- ------------------------------- ---------------------- ------------- -------------------------------- --- ----------------------- ------------------------------ ---------------------------------------------------------------------------------------------------------------------------------------------------------------------------------------------------------------------------- 
28     onnxMul_1076_Dequa..tput_const (Placeholder, DequantizeLinear)                  [b:128,h:1,c:1]                 128/512                                                                 | -512(-100.0%)                                          
------ ------------------------------------------------------------------------------- ------------------------------- ---------------------- ------------- -------------------------------- --- ----------------------- ------------------------------ ---------------------------------------------------------------------------------------------------------------------------------------------------------------------------------------------------------------------------- 
29     onnxMul_1078_Dequa..tput_const (Placeholder, DequantizeLinear)                  [b:128,h:1,c:1]                 128/512                                                                 | -512(-100.0%)                                          
------ ------------------------------------------------------------------------------- ------------------------------- ---------------------- ------------- -------------------------------- --- ----------------------- ------------------------------ ---------------------------------------------------------------------------------------------------------------------------------------------------------------------------------------------------------------------------- 
30     onnxMul_1090_Dequa..tput_const (Placeholder, DequantizeLinear)                  [b:128,h:1,c:1]                 128/512                                                                 | -512(-100.0%)                                          
------ ------------------------------------------------------------------------------- ------------------------------- ---------------------- ------------- -------------------------------- --- ----------------------- ------------------------------ ---------------------------------------------------------------------------------------------------------------------------------------------------------------------------------------------------------------------------- 
31     onnxMul_1109_Dequa..tput_const (Placeholder, DequantizeLinear)                  [b:64,h:1,c:1]                  64/256                                                                  | -256(-100.0%)                                          
------ ------------------------------------------------------------------------------- ------------------------------- ---------------------- ------------- -------------------------------- --- ----------------------- ------------------------------ ---------------------------------------------------------------------------------------------------------------------------------------------------------------------------------------------------------------------------- 
32     onnxMul_1111_Dequa..tput_const (Placeholder, DequantizeLinear)                  [b:64,h:1,c:1]                  64/256                                                                  | -256(-100.0%)                                          
------ ------------------------------------------------------------------------------- ------------------------------- ---------------------- ------------- -------------------------------- --- ----------------------- ------------------------------ ---------------------------------------------------------------------------------------------------------------------------------------------------------------------------------------------------------------------------- 
33     onnxMul_1123_Dequa..tput_const (Placeholder, DequantizeLinear)                  [b:64,h:1,c:1]                  64/256                                                                  | -256(-100.0%)                                          
------ ------------------------------------------------------------------------------- ------------------------------- ---------------------- ------------- -------------------------------- --- ----------------------- ------------------------------ ---------------------------------------------------------------------------------------------------------------------------------------------------------------------------------------------------------------------------- 
34     text_embedding_Qua..ear_Output (Conversion, QuantizeLinear)                     [b:1,c:512]                                                    1,024                   text_embedding   |                         -1,024(-100.0%)                
------ ------------------------------------------------------------------------------- ------------------------------- ---------------------- ------------- -------------------------------- --- ----------------------- ------------------------------ ---------------------------------------------------------------------------------------------------------------------------------------------------------------------------------------------------------------------------- 
35     vae_cond_proj_0_we..tput_const (Placeholder, DequantizeLinear)                  [b:128,c:576]                   73,728/294,912                                                          | -294,912(-100.0%)                                      
------ ------------------------------------------------------------------------------- ------------------------------- ---------------------- ------------- -------------------------------- --- ----------------------- ------------------------------ ---------------------------------------------------------------------------------------------------------------------------------------------------------------------------------------------------------------------------- 
36     vae_cond_proj_2_we..tput_const (Placeholder, DequantizeLinear)                  [b:512,c:128]                   65,536/262,144                                                          | -262,144(-100.0%)                                      
------ ------------------------------------------------------------------------------- ------------------------------- ---------------------- ------------- -------------------------------- --- ----------------------- ------------------------------ ---------------------------------------------------------------------------------------------------------------------------------------------------------------------------------------------------------------------------- 
40     vae_dec_blocks_1_l..tput_const (Placeholder, DequantizeLinear)                  [b:512,c:512]                   262,144/1,048,576                                                       | -1,048,576(-100.0%)                                    
------ ------------------------------------------------------------------------------- ------------------------------- ---------------------- ------------- -------------------------------- --- ----------------------- ------------------------------ ---------------------------------------------------------------------------------------------------------------------------------------------------------------------------------------------------------------------------- 
41     vae_dec_blocks_1_l..tput_const (Placeholder, DequantizeLinear)                  [b:512,c:512]                   262,144/1,048,576                                                       | -1,048,576(-100.0%)                                    
------ ------------------------------------------------------------------------------- ------------------------------- ---------------------- ------------- -------------------------------- --- ----------------------- ------------------------------ ---------------------------------------------------------------------------------------------------------------------------------------------------------------------------------------------------------------------------- 
42     vae_dec_blocks_2_h..tput_const (Placeholder, DequantizeLinear)                  [b:768]                         768/3,072                                                               | -3,072(-100.0%)                                        
------ ------------------------------------------------------------------------------- ------------------------------- ---------------------- ------------- -------------------------------- --- ----------------------- ------------------------------ ---------------------------------------------------------------------------------------------------------------------------------------------------------------------------------------------------------------------------- 
43     vae_dec_blocks_2_h..tput_const (Placeholder, DequantizeLinear)                  [b:256]                         256/1,024                                                               | -1,024(-100.0%)                                        
------ ------------------------------------------------------------------------------- ------------------------------- ---------------------- ------------- -------------------------------- --- ----------------------- ------------------------------ ---------------------------------------------------------------------------------------------------------------------------------------------------------------------------------------------------------------------------- 
44     vae_dec_blocks_2_l..tput_const (Placeholder, DequantizeLinear)                  [b:256]                         256/1,024                                                               | -1,024(-100.0%)                                        
------ ------------------------------------------------------------------------------- ------------------------------- ---------------------- ------------- -------------------------------- --- ----------------------- ------------------------------ ---------------------------------------------------------------------------------------------------------------------------------------------------------------------------------------------------------------------------- 
45     vae_dec_blocks_2_l..tput_const (Placeholder, DequantizeLinear)                  [b:256]                         256/1,024                                                               | -1,024(-100.0%)                                        
------ ------------------------------------------------------------------------------- ------------------------------- ---------------------- ------------- -------------------------------- --- ----------------------- ------------------------------ ---------------------------------------------------------------------------------------------------------------------------------------------------------------------------------------------------------------------------- 
46     vae_dec_blocks_2_w..tput_const (Placeholder, DequantizeLinear)                  [b:768]                         768/3,072                                                               | -3,072(-100.0%)                                        
------ ------------------------------------------------------------------------------- ------------------------------- ---------------------- ------------- -------------------------------- --- ----------------------- ------------------------------ ---------------------------------------------------------------------------------------------------------------------------------------------------------------------------------------------------------------------------- 
47     vae_dec_blocks_2_w..tput_const (Placeholder, DequantizeLinear)                  [b:256]                         256/1,024                                                               | -1,024(-100.0%)                                        
------ ------------------------------------------------------------------------------- ------------------------------- ---------------------- ------------- -------------------------------- --- ----------------------- ------------------------------ ---------------------------------------------------------------------------------------------------------------------------------------------------------------------------------------------------------------------------- 
51     vae_dec_blocks_4_l..tput_const (Placeholder, DequantizeLinear)                  [b:256,c:512]                   131,072/524,288                                                         | -524,288(-100.0%)                                      
------ ------------------------------------------------------------------------------- ------------------------------- ---------------------- ------------- -------------------------------- --- ----------------------- ------------------------------ ---------------------------------------------------------------------------------------------------------------------------------------------------------------------------------------------------------------------------- 
52     vae_dec_blocks_4_l..tput_const (Placeholder, DequantizeLinear)                  [b:256,c:256]                   65,536/262,144                                                          | -262,144(-100.0%)                                      
------ ------------------------------------------------------------------------------- ------------------------------- ---------------------- ------------- -------------------------------- --- ----------------------- ------------------------------ ---------------------------------------------------------------------------------------------------------------------------------------------------------------------------------------------------------------------------- 
53     vae_dec_blocks_5_h..tput_const (Placeholder, DequantizeLinear)                  [b:384]                         384/1,536                                                               | -1,536(-100.0%)                                        
------ ------------------------------------------------------------------------------- ------------------------------- ---------------------- ------------- -------------------------------- --- ----------------------- ------------------------------ ---------------------------------------------------------------------------------------------------------------------------------------------------------------------------------------------------------------------------- 
54     vae_dec_blocks_5_h..tput_const (Placeholder, DequantizeLinear)                  [b:128]                         128/512                                                                 | -512(-100.0%)                                          
------ ------------------------------------------------------------------------------- ------------------------------- ---------------------- ------------- -------------------------------- --- ----------------------- ------------------------------ ---------------------------------------------------------------------------------------------------------------------------------------------------------------------------------------------------------------------------- 
55     vae_dec_blocks_5_l..tput_const (Placeholder, DequantizeLinear)                  [b:128]                         128/512                                                                 | -512(-100.0%)                                          
------ ------------------------------------------------------------------------------- ------------------------------- ---------------------- ------------- -------------------------------- --- ----------------------- ------------------------------ ---------------------------------------------------------------------------------------------------------------------------------------------------------------------------------------------------------------------------- 
56     vae_dec_blocks_5_l..tput_const (Placeholder, DequantizeLinear)                  [b:128]                         128/512                                                                 | -512(-100.0%)                                          
------ ------------------------------------------------------------------------------- ------------------------------- ---------------------- ------------- -------------------------------- --- ----------------------- ------------------------------ ---------------------------------------------------------------------------------------------------------------------------------------------------------------------------------------------------------------------------- 
57     vae_dec_blocks_5_w..tput_const (Placeholder, DequantizeLinear)                  [b:384]                         384/1,536                                                               | -1,536(-100.0%)                                        
------ ------------------------------------------------------------------------------- ------------------------------- ---------------------- ------------- -------------------------------- --- ----------------------- ------------------------------ ---------------------------------------------------------------------------------------------------------------------------------------------------------------------------------------------------------------------------- 
58     vae_dec_blocks_5_w..tput_const (Placeholder, DequantizeLinear)                  [b:128]                         128/512                                                                 | -512(-100.0%)                                          
------ ------------------------------------------------------------------------------- ------------------------------- ---------------------- ------------- -------------------------------- --- ----------------------- ------------------------------ ---------------------------------------------------------------------------------------------------------------------------------------------------------------------------------------------------------------------------- 
62     vae_dec_blocks_7_l..tput_const (Placeholder, DequantizeLinear)                  [b:128,c:512]                   65,536/262,144                                                          | -262,144(-100.0%)                                      
------ ------------------------------------------------------------------------------- ------------------------------- ---------------------- ------------- -------------------------------- --- ----------------------- ------------------------------ ---------------------------------------------------------------------------------------------------------------------------------------------------------------------------------------------------------------------------- 
63     vae_dec_blocks_7_l..tput_const (Placeholder, DequantizeLinear)                  [b:128,c:128]                   16,384/65,536                                                           | -65,536(-100.0%)                                       
------ ------------------------------------------------------------------------------- ------------------------------- ---------------------- ------------- -------------------------------- --- ----------------------- ------------------------------ ---------------------------------------------------------------------------------------------------------------------------------------------------------------------------------------------------------------------------- 
66     _latent_norm_Reshape_output_0 (Reshape, Reshape)                                [b:1,h:144,c:8]                                                                                     z   |                         +3,456(+100.0%)                Transpose_/Transpose_/Conversion_[46, 47, 48]                                                                                                                                                                                
------ ------------------------------------------------------------------------------- ------------------------------- ---------------------- ------------- -------------------------------- --- ----------------------- ------------------------------ ---------------------------------------------------------------------------------------------------------------------------------------------------------------------------------------------------------------------------- 
67     text_embedding_Deq..ear_Output (Conversion, DequantizeLinear)                   [b:1,c:512]                                                    1,024   text_embedding_Qua..ear_Output   |                         -1,024(-100.0%)                
------ ------------------------------------------------------------------------------- ------------------------------- ---------------------- ------------- -------------------------------- --- ----------------------- ------------------------------ ---------------------------------------------------------------------------------------------------------------------------------------------------------------------------------------------------------------------------- 
68     _latent_norm_Resha..ear_Output (Conversion, QuantizeLinear)                     [b:1,h:144,c:8]                                                2,304    _latent_norm_Reshape_output_0   |                         -2,304(-100.0%)                
------ ------------------------------------------------------------------------------- ------------------------------- ---------------------- ------------- -------------------------------- --- ----------------------- ------------------------------ ---------------------------------------------------------------------------------------------------------------------------------------------------------------------------------------------------------------------------- 
69     _Concat_output_0 (Concat, Concat)                                               [b:1,c:576]                                                            text_embedding_Deq..ear_Output   | +64(+100.0%)            +1,152(+100.0%)                Concat_/Conversion_[8, 9]                                                                                                                                                                                                    
                                                                                                                                                              onnxConcat_1040_De..tput_const   | 
------ ------------------------------------------------------------------------------- ------------------------------- ---------------------- ------------- -------------------------------- --- ----------------------- ------------------------------ ---------------------------------------------------------------------------------------------------------------------------------------------------------------------------------------------------------------------------- 
70     _latent_norm_Resha..ear_Output (Conversion, DequantizeLinear)                   [b:1,h:144,c:8]                                                2,304   _latent_norm_Resha..ear_Output   |                         -2,304(-100.0%)                
------ ------------------------------------------------------------------------------- ------------------------------- ---------------------- ------------- -------------------------------- --- ----------------------- ------------------------------ ---------------------------------------------------------------------------------------------------------------------------------------------------------------------------------------------------------------------------- 
71     _Concat_output_0_Q..ear_Output (Conversion, QuantizeLinear)                     [b:1,c:576]                                                    1,152                 _Concat_output_0   |                         -1,152(-100.0%)                
------ ------------------------------------------------------------------------------- ------------------------------- ---------------------- ------------- -------------------------------- --- ----------------------- ------------------------------ ---------------------------------------------------------------------------------------------------------------------------------------------------------------------------------------------------------------------------- 
72     _latent_norm_Insta..n_output_0 (InstanceNormalization, InstanceNormalization)   [b:1,h:144,c:8]                 16/64                         13,824   _latent_norm_Resha..ear_Output   |                         +2,304(+16.7%)                 InstanceNormalization_/Conversion_[49, 50]                                                                                                                                                                                   
------ ------------------------------------------------------------------------------- ------------------------------- ---------------------- ------------- -------------------------------- --- ----------------------- ------------------------------ ---------------------------------------------------------------------------------------------------------------------------------------------------------------------------------------------------------------------------- 
73     _Concat_output_0_D..ear_Output (Conversion, DequantizeLinear)                   [b:1,c:576]                                                    1,152   _Concat_output_0_Q..ear_Output   |                         -1,152(-100.0%)                
------ ------------------------------------------------------------------------------- ------------------------------- ---------------------- ------------- -------------------------------- --- ----------------------- ------------------------------ ---------------------------------------------------------------------------------------------------------------------------------------------------------------------------------------------------------------------------- 
74     _latent_norm_Insta..ear_Output (Conversion, QuantizeLinear)                     [b:1,h:144,c:8]                                                2,304   _latent_norm_Insta..n_output_0   |                         -2,304(-100.0%)                
------ ------------------------------------------------------------------------------- ------------------------------- ---------------------- ------------- -------------------------------- --- ----------------------- ------------------------------ ---------------------------------------------------------------------------------------------------------------------------------------------------------------------------------------------------------------------------- 
75     _cond_proj_cond_pr..m_output_0 (Gemm, Gemm)                                     [b:1,c:128]                                                   73,856   _Concat_output_0_D..ear_Output   |                         -73,856(-100.0%)               
                                                                                                                                                              vae_cond_proj_0_we..tput_const   | 
                                                                                                                                                                        vae_cond_proj_0_bias   | 
------ ------------------------------------------------------------------------------- ------------------------------- ---------------------- ------------- -------------------------------- --- ----------------------- ------------------------------ ---------------------------------------------------------------------------------------------------------------------------------------------------------------------------------------------------------------------------- 
76     _latent_norm_Insta..ear_Output (Conversion, DequantizeLinear)                   [b:1,h:144,c:8]                                                2,304   _latent_norm_Insta..ear_Output   |                         -2,304(-100.0%)                
------ ------------------------------------------------------------------------------- ------------------------------- ---------------------- ------------- -------------------------------- --- ----------------------- ------------------------------ ---------------------------------------------------------------------------------------------------------------------------------------------------------------------------------------------------------------------------- 
77     _cond_proj_cond_pr..ear_Output (Conversion, QuantizeLinear)                     [b:1,c:128]                                                      256   _cond_proj_cond_pr..m_output_0   |                         -256(-100.0%)                  
------ ------------------------------------------------------------------------------- ------------------------------- ---------------------- ------------- -------------------------------- --- ----------------------- ------------------------------ ---------------------------------------------------------------------------------------------------------------------------------------------------------------------------------------------------------------------------- 
78     _latent_norm_Resha..1_output_0 (Reshape, Reshape)                               [b:1,h:12,w:12,c:8]                                                    _latent_norm_Insta..ear_Output   |                                                        
------ ------------------------------------------------------------------------------- ------------------------------- ---------------------- ------------- -------------------------------- --- ----------------------- ------------------------------ ---------------------------------------------------------------------------------------------------------------------------------------------------------------------------------------------------------------------------- 
79     _cond_proj_cond_pr..ear_Output (Conversion, DequantizeLinear)                   [b:1,c:128]                                                      256   _cond_proj_cond_pr..ear_Output   |                         -256(-100.0%)                  
------ ------------------------------------------------------------------------------- ------------------------------- ---------------------- ------------- -------------------------------- --- ----------------------- ------------------------------ ---------------------------------------------------------------------------------------------------------------------------------------------------------------------------------------------------------------------------- 
80     _latent_norm_Resha..ear_Output (Conversion, QuantizeLinear)                     [b:1,h:12,w:12,c:8]                                            2,304   _latent_norm_Resha..1_output_0   |                         -2,304(-100.0%)                
------ ------------------------------------------------------------------------------- ------------------------------- ---------------------- ------------- -------------------------------- --- ----------------------- ------------------------------ ---------------------------------------------------------------------------------------------------------------------------------------------------------------------------------------------------------------------------- 
81     _cond_proj_cond_pr..d_output_0 (Nonlinearity, Sigmoid)                          [b:1,c:128]                                                    1,280   _cond_proj_cond_pr..ear_Output   |                         -1,152(-90.0%)                 Nonlinearity_[12]                                                                                                                                                                                                            
------ ------------------------------------------------------------------------------- ------------------------------- ---------------------- ------------- -------------------------------- --- ----------------------- ------------------------------ ---------------------------------------------------------------------------------------------------------------------------------------------------------------------------------------------------------------------------- 
82     _latent_norm_Resha..ear_Output (Conversion, DequantizeLinear)                   [b:1,h:12,w:12,c:8]                                            2,304   _latent_norm_Resha..ear_Output   |                         -2,304(-100.0%)                
------ ------------------------------------------------------------------------------- ------------------------------- ---------------------- ------------- -------------------------------- --- ----------------------- ------------------------------ ---------------------------------------------------------------------------------------------------------------------------------------------------------------------------------------------------------------------------- 
83     _cond_proj_cond_pr..ear_Output (Conversion, QuantizeLinear)                     [b:1,c:128]                                                      256   _cond_proj_cond_pr..d_output_0   |                         -256(-100.0%)                  
------ ------------------------------------------------------------------------------- ------------------------------- ---------------------- ------------- -------------------------------- --- ----------------------- ------------------------------ ---------------------------------------------------------------------------------------------------------------------------------------------------------------------------------------------------------------------------- 
84     _latent_norm_Mul_output_0 (Eltwise, Mul)                                        [b:1,h:12,w:12,c:8]                                            1,152   _latent_norm_Resha..ear_Output   | +8(+100.0%)                                            Eltwise/mul_[51]                                                                                                                                                                                                             
                                                                                                                                                              onnxMul_1041_Dequa..tput_const   | 
------ ------------------------------------------------------------------------------- ------------------------------- ---------------------- ------------- -------------------------------- --- ----------------------- ------------------------------ ---------------------------------------------------------------------------------------------------------------------------------------------------------------------------------------------------------------------------- 
85     _cond_proj_cond_pr..ear_Output (Conversion, DequantizeLinear)                   [b:1,c:128]                                                      256   _cond_proj_cond_pr..ear_Output   |                         -256(-100.0%)                  
------ ------------------------------------------------------------------------------- ------------------------------- ---------------------- ------------- -------------------------------- --- ----------------------- ------------------------------ ---------------------------------------------------------------------------------------------------------------------------------------------------------------------------------------------------------------------------- 
86     _latent_norm_Mul_o..ear_Output (Conversion, QuantizeLinear)                     [b:1,h:12,w:12,c:8]                                            2,304        _latent_norm_Mul_output_0   |                         -2,304(-100.0%)                
------ ------------------------------------------------------------------------------- ------------------------------- ---------------------- ------------- -------------------------------- --- ----------------------- ------------------------------ ---------------------------------------------------------------------------------------------------------------------------------------------------------------------------------------------------------------------------- 
87     _latent_norm_Mul_o..ear_Output (Conversion, DequantizeLinear)                   [b:1,h:12,w:12,c:8]                                            2,304   _latent_norm_Mul_o..ear_Output   |                         -2,304(-100.0%)                
------ ------------------------------------------------------------------------------- ------------------------------- ---------------------- ------------- -------------------------------- --- ----------------------- ------------------------------ ---------------------------------------------------------------------------------------------------------------------------------------------------------------------------------------------------------------------------- 
88     _latent_norm_Add_output_0 (Eltwise, Add)                                        [b:1,h:12,w:12,c:8]                                            1,152   _latent_norm_Mul_o..ear_Output   | +8(+100.0%)                                            Eltwise/add_[52]                                                                                                                                                                                                             
                                                                                                                                                              onnxAdd_1042_Dequa..tput_const   | 
------ ------------------------------------------------------------------------------- ------------------------------- ---------------------- ------------- -------------------------------- --- ----------------------- ------------------------------ ---------------------------------------------------------------------------------------------------------------------------------------------------------------------------------------------------------------------------- 
89     _latent_norm_Add_o..ear_Output (Conversion, QuantizeLinear)                     [b:1,h:12,w:12,c:8]                                            2,304        _latent_norm_Add_output_0   |                         -2,304(-100.0%)                
------ ------------------------------------------------------------------------------- ------------------------------- ---------------------- ------------- -------------------------------- --- ----------------------- ------------------------------ ---------------------------------------------------------------------------------------------------------------------------------------------------------------------------------------------------------------------------- 
90     _latent_norm_Add_o..ear_Output (Conversion, DequantizeLinear)                   [b:1,h:12,w:12,c:8]                                            2,304   _latent_norm_Add_o..ear_Output   |                         -2,304(-100.0%)                
------ ------------------------------------------------------------------------------- ------------------------------- ---------------------- ------------- -------------------------------- --- ----------------------- ------------------------------ ---------------------------------------------------------------------------------------------------------------------------------------------------------------------------------------------------------------------------- 
91     _dec_in_Conv_output_0 (Conv2D, Conv)                                            [b:1,h:12,w:12,c:512]           37,376/149,504             5,308,928   _latent_norm_Add_o..ear_Output   | -110,592(-74.0%)                                       Conv2D_[53]                                                                                                                                                                                                                  
------ ------------------------------------------------------------------------------- ------------------------------- ---------------------- ------------- -------------------------------- --- ----------------------- ------------------------------ ---------------------------------------------------------------------------------------------------------------------------------------------------------------------------------------------------------------------------- 
92     _dec_in_Conv_outpu..ear_Output (Conversion, QuantizeLinear)                     [b:1,h:12,w:12,c:512]                                        147,456            _dec_in_Conv_output_0   |                         -147,456(-100.0%)              
------ ------------------------------------------------------------------------------- ------------------------------- ---------------------- ------------- -------------------------------- --- ----------------------- ------------------------------ ---------------------------------------------------------------------------------------------------------------------------------------------------------------------------------------------------------------------------- 
93     _dec_in_Conv_outpu..ear_Output (Conversion, DequantizeLinear)                   [b:1,h:12,w:12,c:512]                                        147,456   _dec_in_Conv_outpu..ear_Output   |                         -147,456(-100.0%)              
------ ------------------------------------------------------------------------------- ------------------------------- ---------------------- ------------- -------------------------------- --- ----------------------- ------------------------------ ---------------------------------------------------------------------------------------------------------------------------------------------------------------------------------------------------------------------------- 
94     _dec_blocks_0_conv..v_output_0 (Conv2D, Conv)                                   [b:1,h:12,w:12,c:1024]          4,719,616/18,878,464     679,478,272   _dec_in_Conv_outpu..ear_Output   | -14,155,776(-75.0%)                                    Conv2D_[54]                                                                                                                                                                                                                  
------ ------------------------------------------------------------------------------- ------------------------------- ---------------------- ------------- -------------------------------- --- ----------------------- ------------------------------ ---------------------------------------------------------------------------------------------------------------------------------------------------------------------------------------------------------------------------- 
95     _dec_blocks_0_conv..ear_Output (Conversion, QuantizeLinear)                     [b:1,h:12,w:12,c:1024]                                       294,912   _dec_blocks_0_conv..v_output_0   |                         -294,912(-100.0%)              
------ ------------------------------------------------------------------------------- ------------------------------- ---------------------- ------------- -------------------------------- --- ----------------------- ------------------------------ ---------------------------------------------------------------------------------------------------------------------------------------------------------------------------------------------------------------------------- 
96     _dec_blocks_0_conv..ear_Output (Conversion, DequantizeLinear)                   [b:1,h:12,w:12,c:1024]                                       294,912   _dec_blocks_0_conv..ear_Output   |                         -294,912(-100.0%)              
------ ------------------------------------------------------------------------------- ------------------------------- ---------------------- ------------- -------------------------------- --- ----------------------- ------------------------------ ---------------------------------------------------------------------------------------------------------------------------------------------------------------------------------------------------------------------------- 
97     _cond_proj_cond_pr..l_output_0 (Eltwise, Mul)                                   [b:1,c:128]                                                      128   _cond_proj_cond_pr..ear_Output   |                         +256(+200.0%)                  Eltwise/mul_/Conversion_[13, 14]                                                                                                                                                                                             
                                                                                                                                                              _cond_proj_cond_pr..ear_Output   | 
------ ------------------------------------------------------------------------------- ------------------------------- ---------------------- ------------- -------------------------------- --- ----------------------- ------------------------------ ---------------------------------------------------------------------------------------------------------------------------------------------------------------------------------------------------------------------------- 
98     _cond_proj_cond_pr..ear_Output (Conversion, QuantizeLinear)                     [b:1,c:128]                                                      256   _cond_proj_cond_pr..l_output_0   |                         -256(-100.0%)                  
------ ------------------------------------------------------------------------------- ------------------------------- ---------------------- ------------- -------------------------------- --- ----------------------- ------------------------------ ---------------------------------------------------------------------------------------------------------------------------------------------------------------------------------------------------------------------------- 
99     _cond_proj_cond_pr..ear_Output (Conversion, DequantizeLinear)                   [b:1,c:128]                                                      256   _cond_proj_cond_pr..ear_Output   |                         -256(-100.0%)                  
------ ------------------------------------------------------------------------------- ------------------------------- ---------------------- ------------- -------------------------------- --- ----------------------- ------------------------------ ---------------------------------------------------------------------------------------------------------------------------------------------------------------------------------------------------------------------------- 
100    _cond_proj_cond_pr..m_output_0 (Gemm, Gemm)                                     [b:1,c:512]                                                   66,048   _cond_proj_cond_pr..ear_Output   |                         -66,048(-100.0%)               
                                                                                                                                                              vae_cond_proj_2_we..tput_const   | 
                                                                                                                                                                        vae_cond_proj_2_bias   | 
------ ------------------------------------------------------------------------------- ------------------------------- ---------------------- ------------- -------------------------------- --- ----------------------- ------------------------------ ---------------------------------------------------------------------------------------------------------------------------------------------------------------------------------------------------------------------------- 
101    _cond_proj_cond_pr..ear_Output (Conversion, QuantizeLinear)                     [b:1,c:512]                                                    1,024   _cond_proj_cond_pr..m_output_0   |                         -1,024(-100.0%)                
------ ------------------------------------------------------------------------------- ------------------------------- ---------------------- ------------- -------------------------------- --- ----------------------- ------------------------------ ---------------------------------------------------------------------------------------------------------------------------------------------------------------------------------------------------------------------------- 
102    _cond_proj_cond_pr..ear_Output (Conversion, DequantizeLinear)                   [b:1,c:512]                                                    1,024   _cond_proj_cond_pr..ear_Output   |                         -1,024(-100.0%)                
------ ------------------------------------------------------------------------------- ------------------------------- ---------------------- ------------- -------------------------------- --- ----------------------- ------------------------------ ---------------------------------------------------------------------------------------------------------------------------------------------------------------------------------------------------------------------------- 
103    _dec_blocks_1_labe..m_output_0 (Gemm, Gemm)                                     [b:1,c:512]                                                  262,656   _cond_proj_cond_pr..ear_Output   |                         -262,656(-100.0%)              
                                                                                                                                                              vae_dec_blocks_1_l..tput_const   | 
                                                                                                                                                              vae_dec_blocks_1_l..roj_0_bias   | 
------ ------------------------------------------------------------------------------- ------------------------------- ---------------------- ------------- -------------------------------- --- ----------------------- ------------------------------ ---------------------------------------------------------------------------------------------------------------------------------------------------------------------------------------------------------------------------- 
104    _dec_blocks_1_labe..ear_Output (Conversion, QuantizeLinear)                     [b:1,c:512]                                                    1,024   _dec_blocks_1_labe..m_output_0   |                         -1,024(-100.0%)                
------ ------------------------------------------------------------------------------- ------------------------------- ---------------------- ------------- -------------------------------- --- ----------------------- ------------------------------ ---------------------------------------------------------------------------------------------------------------------------------------------------------------------------------------------------------------------------- 
105    _dec_blocks_1_labe..ear_Output (Conversion, DequantizeLinear)                   [b:1,c:512]                                                    1,024   _dec_blocks_1_labe..ear_Output   |                         -1,024(-100.0%)                
------ ------------------------------------------------------------------------------- ------------------------------- ---------------------- ------------- -------------------------------- --- ----------------------- ------------------------------ ---------------------------------------------------------------------------------------------------------------------------------------------------------------------------------------------------------------------------- 
106    _dec_blocks_1_labe..d_output_0 (Nonlinearity, Sigmoid)                          [b:1,c:512]                                                    5,120   _dec_blocks_1_labe..ear_Output   |                         -4,608(-90.0%)                 Nonlinearity_[18]                                                                                                                                                                                                            
------ ------------------------------------------------------------------------------- ------------------------------- ---------------------- ------------- -------------------------------- --- ----------------------- ------------------------------ ---------------------------------------------------------------------------------------------------------------------------------------------------------------------------------------------------------------------------- 
107    _dec_blocks_1_labe..ear_Output (Conversion, QuantizeLinear)                     [b:1,c:512]                                                    1,024   _dec_blocks_1_labe..d_output_0   |                         -1,024(-100.0%)                
------ ------------------------------------------------------------------------------- ------------------------------- ---------------------- ------------- -------------------------------- --- ----------------------- ------------------------------ ---------------------------------------------------------------------------------------------------------------------------------------------------------------------------------------------------------------------------- 
108    _dec_blocks_1_labe..ear_Output (Conversion, DequantizeLinear)                   [b:1,c:512]                                                    1,024   _dec_blocks_1_labe..ear_Output   |                         -1,024(-100.0%)                
------ ------------------------------------------------------------------------------- ------------------------------- ---------------------- ------------- -------------------------------- --- ----------------------- ------------------------------ ---------------------------------------------------------------------------------------------------------------------------------------------------------------------------------------------------------------------------- 
109    _dec_blocks_4_labe..m_output_0 (Gemm, Gemm)                                     [b:1,c:256]                                                  131,328   _cond_proj_cond_pr..ear_Output   |                         -131,328(-100.0%)              
                                                                                                                                                              vae_dec_blocks_4_l..tput_const   | 
                                                                                                                                                              vae_dec_blocks_4_l..roj_0_bias   | 
------ ------------------------------------------------------------------------------- ------------------------------- ---------------------- ------------- -------------------------------- --- ----------------------- ------------------------------ ---------------------------------------------------------------------------------------------------------------------------------------------------------------------------------------------------------------------------- 
110    _dec_blocks_4_labe..ear_Output (Conversion, QuantizeLinear)                     [b:1,c:256]                                                      512   _dec_blocks_4_labe..m_output_0   |                         -512(-100.0%)                  
------ ------------------------------------------------------------------------------- ------------------------------- ---------------------- ------------- -------------------------------- --- ----------------------- ------------------------------ ---------------------------------------------------------------------------------------------------------------------------------------------------------------------------------------------------------------------------- 
111    _dec_blocks_4_labe..ear_Output (Conversion, DequantizeLinear)                   [b:1,c:256]                                                      512   _dec_blocks_4_labe..ear_Output   |                         -512(-100.0%)                  
------ ------------------------------------------------------------------------------- ------------------------------- ---------------------- ------------- -------------------------------- --- ----------------------- ------------------------------ ---------------------------------------------------------------------------------------------------------------------------------------------------------------------------------------------------------------------------- 
112    _dec_blocks_4_labe..d_output_0 (Nonlinearity, Sigmoid)                          [b:1,c:256]                                                    2,560   _dec_blocks_4_labe..ear_Output   |                         -2,304(-90.0%)                 Nonlinearity_[28]                                                                                                                                                                                                            
------ ------------------------------------------------------------------------------- ------------------------------- ---------------------- ------------- -------------------------------- --- ----------------------- ------------------------------ ---------------------------------------------------------------------------------------------------------------------------------------------------------------------------------------------------------------------------- 
113    _dec_blocks_4_labe..ear_Output (Conversion, QuantizeLinear)                     [b:1,c:256]                                                      512   _dec_blocks_4_labe..d_output_0   |                         -512(-100.0%)                  
------ ------------------------------------------------------------------------------- ------------------------------- ---------------------- ------------- -------------------------------- --- ----------------------- ------------------------------ ---------------------------------------------------------------------------------------------------------------------------------------------------------------------------------------------------------------------------- 
114    _dec_blocks_4_labe..ear_Output (Conversion, DequantizeLinear)                   [b:1,c:256]                                                      512   _dec_blocks_4_labe..ear_Output   |                         -512(-100.0%)                  
------ ------------------------------------------------------------------------------- ------------------------------- ---------------------- ------------- -------------------------------- --- ----------------------- ------------------------------ ---------------------------------------------------------------------------------------------------------------------------------------------------------------------------------------------------------------------------- 
115    _dec_blocks_7_labe..m_output_0 (Gemm, Gemm)                                     [b:1,c:128]                                                   65,664   _cond_proj_cond_pr..ear_Output   |                         -65,664(-100.0%)               
                                                                                                                                                              vae_dec_blocks_7_l..tput_const   | 
                                                                                                                                                              vae_dec_blocks_7_l..roj_0_bias   | 
------ ------------------------------------------------------------------------------- ------------------------------- ---------------------- ------------- -------------------------------- --- ----------------------- ------------------------------ ---------------------------------------------------------------------------------------------------------------------------------------------------------------------------------------------------------------------------- 
116    _dec_blocks_7_labe..ear_Output (Conversion, QuantizeLinear)                     [b:1,c:128]                                                      256   _dec_blocks_7_labe..m_output_0   |                         -256(-100.0%)                  
------ ------------------------------------------------------------------------------- ------------------------------- ---------------------- ------------- -------------------------------- --- ----------------------- ------------------------------ ---------------------------------------------------------------------------------------------------------------------------------------------------------------------------------------------------------------------------- 
117    _dec_blocks_7_labe..ear_Output (Conversion, DequantizeLinear)                   [b:1,c:128]                                                      256   _dec_blocks_7_labe..ear_Output   |                         -256(-100.0%)                  
------ ------------------------------------------------------------------------------- ------------------------------- ---------------------- ------------- -------------------------------- --- ----------------------- ------------------------------ ---------------------------------------------------------------------------------------------------------------------------------------------------------------------------------------------------------------------------- 
118    _dec_blocks_7_labe..d_output_0 (Nonlinearity, Sigmoid)                          [b:1,c:128]                                                    1,280   _dec_blocks_7_labe..ear_Output   |                         -1,152(-90.0%)                 Nonlinearity_[38]                                                                                                                                                                                                            
------ ------------------------------------------------------------------------------- ------------------------------- ---------------------- ------------- -------------------------------- --- ----------------------- ------------------------------ ---------------------------------------------------------------------------------------------------------------------------------------------------------------------------------------------------------------------------- 
119    _dec_blocks_7_labe..ear_Output (Conversion, QuantizeLinear)                     [b:1,c:128]                                                      256   _dec_blocks_7_labe..d_output_0   |                         -256(-100.0%)                  
------ ------------------------------------------------------------------------------- ------------------------------- ---------------------- ------------- -------------------------------- --- ----------------------- ------------------------------ ---------------------------------------------------------------------------------------------------------------------------------------------------------------------------------------------------------------------------- 
120    _dec_blocks_7_labe..ear_Output (Conversion, DequantizeLinear)                   [b:1,c:128]                                                      256   _dec_blocks_7_labe..ear_Output   |                         -256(-100.0%)                  
------ ------------------------------------------------------------------------------- ------------------------------- ---------------------- ------------- -------------------------------- --- ----------------------- ------------------------------ ---------------------------------------------------------------------------------------------------------------------------------------------------------------------------------------------------------------------------- 
121    _dec_blocks_1_labe..l_output_0 (Eltwise, Mul)                                   [b:1,c:512]                                                      512   _dec_blocks_1_labe..ear_Output   |                         +1,024(+200.0%)                Eltwise/mul_/Conversion_[19, 20]                                                                                                                                                                                             
                                                                                                                                                              _dec_blocks_1_labe..ear_Output   | 
------ ------------------------------------------------------------------------------- ------------------------------- ---------------------- ------------- -------------------------------- --- ----------------------- ------------------------------ ---------------------------------------------------------------------------------------------------------------------------------------------------------------------------------------------------------------------------- 
122    _dec_blocks_1_labe..ear_Output (Conversion, QuantizeLinear)                     [b:1,c:512]                                                    1,024   _dec_blocks_1_labe..l_output_0   |                         -1,024(-100.0%)                
------ ------------------------------------------------------------------------------- ------------------------------- ---------------------- ------------- -------------------------------- --- ----------------------- ------------------------------ ---------------------------------------------------------------------------------------------------------------------------------------------------------------------------------------------------------------------------- 
123    _dec_blocks_1_labe..ear_Output (Conversion, DequantizeLinear)                   [b:1,c:512]                                                    1,024   _dec_blocks_1_labe..ear_Output   |                         -1,024(-100.0%)                
------ ------------------------------------------------------------------------------- ------------------------------- ---------------------- ------------- -------------------------------- --- ----------------------- ------------------------------ ---------------------------------------------------------------------------------------------------------------------------------------------------------------------------------------------------------------------------- 
124    _dec_blocks_1_labe..m_output_0 (Gemm, Gemm)                                     [b:1,c:512]                                                  262,656   _dec_blocks_1_labe..ear_Output   |                         -262,656(-100.0%)              
                                                                                                                                                              vae_dec_blocks_1_l..tput_const   | 
                                                                                                                                                              vae_dec_blocks_1_l..roj_2_bias   | 
------ ------------------------------------------------------------------------------- ------------------------------- ---------------------- ------------- -------------------------------- --- ----------------------- ------------------------------ ---------------------------------------------------------------------------------------------------------------------------------------------------------------------------------------------------------------------------- 
125    _dec_blocks_1_labe..ear_Output (Conversion, QuantizeLinear)                     [b:1,c:512]                                                    1,024   _dec_blocks_1_labe..m_output_0   |                         -1,024(-100.0%)                
------ ------------------------------------------------------------------------------- ------------------------------- ---------------------- ------------- -------------------------------- --- ----------------------- ------------------------------ ---------------------------------------------------------------------------------------------------------------------------------------------------------------------------------------------------------------------------- 
126    _dec_blocks_1_labe..ear_Output (Conversion, DequantizeLinear)                   [b:1,c:512]                                                    1,024   _dec_blocks_1_labe..ear_Output   |                         -1,024(-100.0%)                
------ ------------------------------------------------------------------------------- ------------------------------- ---------------------- ------------- -------------------------------- --- ----------------------- ------------------------------ ---------------------------------------------------------------------------------------------------------------------------------------------------------------------------------------------------------------------------- 
127    _dec_blocks_1_Slice_output_0 (Slice, Slice)                                     [b:1,c:256]                                                            _dec_blocks_1_labe..ear_Output   |                                                        Slice_[24]                                                                                                                                                                                                                   
------ ------------------------------------------------------------------------------- ------------------------------- ---------------------- ------------- -------------------------------- --- ----------------------- ------------------------------ ---------------------------------------------------------------------------------------------------------------------------------------------------------------------------------------------------------------------------- 
128    _dec_blocks_1_Slic..ear_Output (Conversion, QuantizeLinear)                     [b:1,c:256]                                                      512     _dec_blocks_1_Slice_output_0   |                         -512(-100.0%)                  
------ ------------------------------------------------------------------------------- ------------------------------- ---------------------- ------------- -------------------------------- --- ----------------------- ------------------------------ ---------------------------------------------------------------------------------------------------------------------------------------------------------------------------------------------------------------------------- 
129    _dec_blocks_1_Slic..ear_Output (Conversion, DequantizeLinear)                   [b:1,c:256]                                                      512   _dec_blocks_1_Slic..ear_Output   |                         -512(-100.0%)                  
------ ------------------------------------------------------------------------------- ------------------------------- ---------------------- ------------- -------------------------------- --- ----------------------- ------------------------------ ---------------------------------------------------------------------------------------------------------------------------------------------------------------------------------------------------------------------------- 
130    _dec_blocks_1_Reshape_output_0 (Reshape, Reshape)                               [b:1,h:1,w:1,c:256]                                                    _dec_blocks_1_Slic..ear_Output   |                                                        
------ ------------------------------------------------------------------------------- ------------------------------- ---------------------- ------------- -------------------------------- --- ----------------------- ------------------------------ ---------------------------------------------------------------------------------------------------------------------------------------------------------------------------------------------------------------------------- 
131    _dec_blocks_1_Resh..ear_Output (Conversion, QuantizeLinear)                     [b:1,h:1,w:1,c:256]                                              512   _dec_blocks_1_Reshape_output_0   |                         -512(-100.0%)                  
------ ------------------------------------------------------------------------------- ------------------------------- ---------------------- ------------- -------------------------------- --- ----------------------- ------------------------------ ---------------------------------------------------------------------------------------------------------------------------------------------------------------------------------------------------------------------------- 
132    _dec_blocks_1_Resh..ear_Output (Conversion, DequantizeLinear)                   [b:1,h:1,w:1,c:256]                                              512   _dec_blocks_1_Resh..ear_Output   |                         -512(-100.0%)                  
------ ------------------------------------------------------------------------------- ------------------------------- ---------------------- ------------- -------------------------------- --- ----------------------- ------------------------------ ---------------------------------------------------------------------------------------------------------------------------------------------------------------------------------------------------------------------------- 
133    _dec_blocks_1_Add_1_output_0 (Eltwise, Add)                                     [b:1,h:1,w:1,c:256]                                              256   _dec_blocks_1_Resh..ear_Output   | +1(+100.0%)                                            Eltwise/add_[25]                                                                                                                                                                                                             
                                                                                                                                                              _dec_blocks_1_Cons..tput_const   | 
------ ------------------------------------------------------------------------------- ------------------------------- ---------------------- ------------- -------------------------------- --- ----------------------- ------------------------------ ---------------------------------------------------------------------------------------------------------------------------------------------------------------------------------------------------------------------------- 
134    _dec_blocks_1_Add_..ear_Output (Conversion, QuantizeLinear)                     [b:1,h:1,w:1,c:256]                                              512     _dec_blocks_1_Add_1_output_0   |                         -512(-100.0%)                  
------ ------------------------------------------------------------------------------- ------------------------------- ---------------------- ------------- -------------------------------- --- ----------------------- ------------------------------ ---------------------------------------------------------------------------------------------------------------------------------------------------------------------------------------------------------------------------- 
135    _dec_blocks_1_Add_..ear_Output (Conversion, DequantizeLinear)                   [b:1,h:1,w:1,c:256]                                              512   _dec_blocks_1_Add_..ear_Output   |                         -512(-100.0%)                  
------ ------------------------------------------------------------------------------- ------------------------------- ---------------------- ------------- -------------------------------- --- ----------------------- ------------------------------ ---------------------------------------------------------------------------------------------------------------------------------------------------------------------------------------------------------------------------- 
136    _dec_blocks_4_labe..l_output_0 (Eltwise, Mul)                                   [b:1,c:256]                                                      256   _dec_blocks_4_labe..ear_Output   |                         +512(+200.0%)                  Eltwise/mul_/Conversion_[29, 30]                                                                                                                                                                                             
                                                                                                                                                              _dec_blocks_4_labe..ear_Output   | 
------ ------------------------------------------------------------------------------- ------------------------------- ---------------------- ------------- -------------------------------- --- ----------------------- ------------------------------ ---------------------------------------------------------------------------------------------------------------------------------------------------------------------------------------------------------------------------- 
137    _dec_blocks_4_labe..ear_Output (Conversion, QuantizeLinear)                     [b:1,c:256]                                                      512   _dec_blocks_4_labe..l_output_0   |                         -512(-100.0%)                  
------ ------------------------------------------------------------------------------- ------------------------------- ---------------------- ------------- -------------------------------- --- ----------------------- ------------------------------ ---------------------------------------------------------------------------------------------------------------------------------------------------------------------------------------------------------------------------- 
138    _dec_blocks_4_labe..ear_Output (Conversion, DequantizeLinear)                   [b:1,c:256]                                                      512   _dec_blocks_4_labe..ear_Output   |                         -512(-100.0%)                  
------ ------------------------------------------------------------------------------- ------------------------------- ---------------------- ------------- -------------------------------- --- ----------------------- ------------------------------ ---------------------------------------------------------------------------------------------------------------------------------------------------------------------------------------------------------------------------- 
139    _dec_blocks_4_labe..m_output_0 (Gemm, Gemm)                                     [b:1,c:256]                                                   65,792   _dec_blocks_4_labe..ear_Output   |                         -65,792(-100.0%)               
                                                                                                                                                              vae_dec_blocks_4_l..tput_const   | 
                                                                                                                                                              vae_dec_blocks_4_l..roj_2_bias   | 
------ ------------------------------------------------------------------------------- ------------------------------- ---------------------- ------------- -------------------------------- --- ----------------------- ------------------------------ ---------------------------------------------------------------------------------------------------------------------------------------------------------------------------------------------------------------------------- 
140    _dec_blocks_4_labe..ear_Output (Conversion, QuantizeLinear)                     [b:1,c:256]                                                      512   _dec_blocks_4_labe..m_output_0   |                         -512(-100.0%)                  
------ ------------------------------------------------------------------------------- ------------------------------- ---------------------- ------------- -------------------------------- --- ----------------------- ------------------------------ ---------------------------------------------------------------------------------------------------------------------------------------------------------------------------------------------------------------------------- 
141    _dec_blocks_4_labe..ear_Output (Conversion, DequantizeLinear)                   [b:1,c:256]                                                      512   _dec_blocks_4_labe..ear_Output   |                         -512(-100.0%)                  
------ ------------------------------------------------------------------------------- ------------------------------- ---------------------- ------------- -------------------------------- --- ----------------------- ------------------------------ ---------------------------------------------------------------------------------------------------------------------------------------------------------------------------------------------------------------------------- 
142    _dec_blocks_4_Slice_output_0 (Slice, Slice)                                     [b:1,c:128]                                                            _dec_blocks_4_labe..ear_Output   |                                                        Slice_[34]                                                                                                                                                                                                                   
------ ------------------------------------------------------------------------------- ------------------------------- ---------------------- ------------- -------------------------------- --- ----------------------- ------------------------------ ---------------------------------------------------------------------------------------------------------------------------------------------------------------------------------------------------------------------------- 
143    _dec_blocks_4_Slic..ear_Output (Conversion, QuantizeLinear)                     [b:1,c:128]                                                      256     _dec_blocks_4_Slice_output_0   |                         -256(-100.0%)                  
------ ------------------------------------------------------------------------------- ------------------------------- ---------------------- ------------- -------------------------------- --- ----------------------- ------------------------------ ---------------------------------------------------------------------------------------------------------------------------------------------------------------------------------------------------------------------------- 
144    _dec_blocks_4_Slic..ear_Output (Conversion, DequantizeLinear)                   [b:1,c:128]                                                      256   _dec_blocks_4_Slic..ear_Output   |                         -256(-100.0%)                  
------ ------------------------------------------------------------------------------- ------------------------------- ---------------------- ------------- -------------------------------- --- ----------------------- ------------------------------ ---------------------------------------------------------------------------------------------------------------------------------------------------------------------------------------------------------------------------- 
145    _dec_blocks_4_Reshape_output_0 (Reshape, Reshape)                               [b:1,h:1,w:1,c:128]                                                    _dec_blocks_4_Slic..ear_Output   |                                                        
------ ------------------------------------------------------------------------------- ------------------------------- ---------------------- ------------- -------------------------------- --- ----------------------- ------------------------------ ---------------------------------------------------------------------------------------------------------------------------------------------------------------------------------------------------------------------------- 
146    _dec_blocks_4_Resh..ear_Output (Conversion, QuantizeLinear)                     [b:1,h:1,w:1,c:128]                                              256   _dec_blocks_4_Reshape_output_0   |                         -256(-100.0%)                  
------ ------------------------------------------------------------------------------- ------------------------------- ---------------------- ------------- -------------------------------- --- ----------------------- ------------------------------ ---------------------------------------------------------------------------------------------------------------------------------------------------------------------------------------------------------------------------- 
147    _dec_blocks_4_Resh..ear_Output (Conversion, DequantizeLinear)                   [b:1,h:1,w:1,c:128]                                              256   _dec_blocks_4_Resh..ear_Output   |                         -256(-100.0%)                  
------ ------------------------------------------------------------------------------- ------------------------------- ---------------------- ------------- -------------------------------- --- ----------------------- ------------------------------ ---------------------------------------------------------------------------------------------------------------------------------------------------------------------------------------------------------------------------- 
148    _dec_blocks_4_Add_1_output_0 (Eltwise, Add)                                     [b:1,h:1,w:1,c:128]                                              128   _dec_blocks_4_Resh..ear_Output   | +1(+100.0%)                                            Eltwise/add_[35]                                                                                                                                                                                                             
                                                                                                                                                              _dec_blocks_1_Cons..tput_const   | 
------ ------------------------------------------------------------------------------- ------------------------------- ---------------------- ------------- -------------------------------- --- ----------------------- ------------------------------ ---------------------------------------------------------------------------------------------------------------------------------------------------------------------------------------------------------------------------- 
149    _dec_blocks_4_Add_..ear_Output (Conversion, QuantizeLinear)                     [b:1,h:1,w:1,c:128]                                              256     _dec_blocks_4_Add_1_output_0   |                         -256(-100.0%)                  
------ ------------------------------------------------------------------------------- ------------------------------- ---------------------- ------------- -------------------------------- --- ----------------------- ------------------------------ ---------------------------------------------------------------------------------------------------------------------------------------------------------------------------------------------------------------------------- 
150    _dec_blocks_4_Add_..ear_Output (Conversion, DequantizeLinear)                   [b:1,h:1,w:1,c:128]                                              256   _dec_blocks_4_Add_..ear_Output   |                         -256(-100.0%)                  
------ ------------------------------------------------------------------------------- ------------------------------- ---------------------- ------------- -------------------------------- --- ----------------------- ------------------------------ ---------------------------------------------------------------------------------------------------------------------------------------------------------------------------------------------------------------------------- 
151    _dec_blocks_7_labe..l_output_0 (Eltwise, Mul)                                   [b:1,c:128]                                                      128   _dec_blocks_7_labe..ear_Output   |                         +256(+200.0%)                  Eltwise/mul_/Conversion_[39, 40]                                                                                                                                                                                             
                                                                                                                                                              _dec_blocks_7_labe..ear_Output   | 
------ ------------------------------------------------------------------------------- ------------------------------- ---------------------- ------------- -------------------------------- --- ----------------------- ------------------------------ ---------------------------------------------------------------------------------------------------------------------------------------------------------------------------------------------------------------------------- 
152    _dec_blocks_7_labe..ear_Output (Conversion, QuantizeLinear)                     [b:1,c:128]                                                      256   _dec_blocks_7_labe..l_output_0   |                         -256(-100.0%)                  
------ ------------------------------------------------------------------------------- ------------------------------- ---------------------- ------------- -------------------------------- --- ----------------------- ------------------------------ ---------------------------------------------------------------------------------------------------------------------------------------------------------------------------------------------------------------------------- 
153    _dec_blocks_7_labe..ear_Output (Conversion, DequantizeLinear)                   [b:1,c:128]                                                      256   _dec_blocks_7_labe..ear_Output   |                         -256(-100.0%)                  
------ ------------------------------------------------------------------------------- ------------------------------- ---------------------- ------------- -------------------------------- --- ----------------------- ------------------------------ ---------------------------------------------------------------------------------------------------------------------------------------------------------------------------------------------------------------------------- 
154    _dec_blocks_7_labe..m_output_0 (Gemm, Gemm)                                     [b:1,c:128]                                                   16,512   _dec_blocks_7_labe..ear_Output   |                         -16,512(-100.0%)               
                                                                                                                                                              vae_dec_blocks_7_l..tput_const   | 
                                                                                                                                                              vae_dec_blocks_7_l..roj_2_bias   | 
------ ------------------------------------------------------------------------------- ------------------------------- ---------------------- ------------- -------------------------------- --- ----------------------- ------------------------------ ---------------------------------------------------------------------------------------------------------------------------------------------------------------------------------------------------------------------------- 
155    _dec_blocks_7_labe..ear_Output (Conversion, QuantizeLinear)                     [b:1,c:128]                                                      256   _dec_blocks_7_labe..m_output_0   |                         -256(-100.0%)                  
------ ------------------------------------------------------------------------------- ------------------------------- ---------------------- ------------- -------------------------------- --- ----------------------- ------------------------------ ---------------------------------------------------------------------------------------------------------------------------------------------------------------------------------------------------------------------------- 
156    _dec_blocks_7_labe..ear_Output (Conversion, DequantizeLinear)                   [b:1,c:128]                                                      256   _dec_blocks_7_labe..ear_Output   |                         -256(-100.0%)                  
------ ------------------------------------------------------------------------------- ------------------------------- ---------------------- ------------- -------------------------------- --- ----------------------- ------------------------------ ---------------------------------------------------------------------------------------------------------------------------------------------------------------------------------------------------------------------------- 
157    _dec_blocks_7_Slice_output_0 (Slice, Slice)                                     [b:1,c:64]                                                             _dec_blocks_7_labe..ear_Output   |                                                        Slice_[44]                                                                                                                                                                                                                   
------ ------------------------------------------------------------------------------- ------------------------------- ---------------------- ------------- -------------------------------- --- ----------------------- ------------------------------ ---------------------------------------------------------------------------------------------------------------------------------------------------------------------------------------------------------------------------- 
158    _dec_blocks_7_Slic..ear_Output (Conversion, QuantizeLinear)                     [b:1,c:64]                                                       128     _dec_blocks_7_Slice_output_0   |                         -128(-100.0%)                  
------ ------------------------------------------------------------------------------- ------------------------------- ---------------------- ------------- -------------------------------- --- ----------------------- ------------------------------ ---------------------------------------------------------------------------------------------------------------------------------------------------------------------------------------------------------------------------- 
159    _dec_blocks_7_Slic..ear_Output (Conversion, DequantizeLinear)                   [b:1,c:64]                                                       128   _dec_blocks_7_Slic..ear_Output   |                         -128(-100.0%)                  
------ ------------------------------------------------------------------------------- ------------------------------- ---------------------- ------------- -------------------------------- --- ----------------------- ------------------------------ ---------------------------------------------------------------------------------------------------------------------------------------------------------------------------------------------------------------------------- 
160    _dec_blocks_7_Reshape_output_0 (Reshape, Reshape)                               [b:1,h:1,w:1,c:64]                                                     _dec_blocks_7_Slic..ear_Output   |                                                        
------ ------------------------------------------------------------------------------- ------------------------------- ---------------------- ------------- -------------------------------- --- ----------------------- ------------------------------ ---------------------------------------------------------------------------------------------------------------------------------------------------------------------------------------------------------------------------- 
161    _dec_blocks_7_Resh..ear_Output (Conversion, QuantizeLinear)                     [b:1,h:1,w:1,c:64]                                               128   _dec_blocks_7_Reshape_output_0   |                         -128(-100.0%)                  
------ ------------------------------------------------------------------------------- ------------------------------- ---------------------- ------------- -------------------------------- --- ----------------------- ------------------------------ ---------------------------------------------------------------------------------------------------------------------------------------------------------------------------------------------------------------------------- 
162    _dec_blocks_7_Resh..ear_Output (Conversion, DequantizeLinear)                   [b:1,h:1,w:1,c:64]                                               128   _dec_blocks_7_Resh..ear_Output   |                         -128(-100.0%)                  
------ ------------------------------------------------------------------------------- ------------------------------- ---------------------- ------------- -------------------------------- --- ----------------------- ------------------------------ ---------------------------------------------------------------------------------------------------------------------------------------------------------------------------------------------------------------------------- 
163    _dec_blocks_7_Add_1_output_0 (Eltwise, Add)                                     [b:1,h:1,w:1,c:64]                                                64   _dec_blocks_7_Resh..ear_Output   | +1(+100.0%)                                            Eltwise/add_[45]                                                                                                                                                                                                             
                                                                                                                                                              _dec_blocks_1_Cons..tput_const   | 
------ ------------------------------------------------------------------------------- ------------------------------- ---------------------- ------------- -------------------------------- --- ----------------------- ------------------------------ ---------------------------------------------------------------------------------------------------------------------------------------------------------------------------------------------------------------------------- 
164    _dec_blocks_7_Add_..ear_Output (Conversion, QuantizeLinear)                     [b:1,h:1,w:1,c:64]                                               128     _dec_blocks_7_Add_1_output_0   |                         -128(-100.0%)                  
------ ------------------------------------------------------------------------------- ------------------------------- ---------------------- ------------- -------------------------------- --- ----------------------- ------------------------------ ---------------------------------------------------------------------------------------------------------------------------------------------------------------------------------------------------------------------------- 
165    _dec_blocks_7_Add_..ear_Output (Conversion, DequantizeLinear)                   [b:1,h:1,w:1,c:64]                                               128   _dec_blocks_7_Add_..ear_Output   |                         -128(-100.0%)                  
------ ------------------------------------------------------------------------------- ------------------------------- ---------------------- ------------- -------------------------------- --- ----------------------- ------------------------------ ---------------------------------------------------------------------------------------------------------------------------------------------------------------------------------------------------------------------------- 
166    _dec_blocks_1_Slice_1_output_0 (Slice, Slice)                                   [b:1,c:256]                                                            _dec_blocks_1_labe..ear_Output   |                                                        Slice_[23]                                                                                                                                                                                                                   
------ ------------------------------------------------------------------------------- ------------------------------- ---------------------- ------------- -------------------------------- --- ----------------------- ------------------------------ ---------------------------------------------------------------------------------------------------------------------------------------------------------------------------------------------------------------------------- 
167    _dec_blocks_1_Slic..ear_Output (Conversion, QuantizeLinear)                     [b:1,c:256]                                                      512   _dec_blocks_1_Slice_1_output_0   |                         -512(-100.0%)                  
------ ------------------------------------------------------------------------------- ------------------------------- ---------------------- ------------- -------------------------------- --- ----------------------- ------------------------------ ---------------------------------------------------------------------------------------------------------------------------------------------------------------------------------------------------------------------------- 
168    _dec_blocks_1_Slic..ear_Output (Conversion, DequantizeLinear)                   [b:1,c:256]                                                      512   _dec_blocks_1_Slic..ear_Output   |                         -512(-100.0%)                  
------ ------------------------------------------------------------------------------- ------------------------------- ---------------------- ------------- -------------------------------- --- ----------------------- ------------------------------ ---------------------------------------------------------------------------------------------------------------------------------------------------------------------------------------------------------------------------- 
169    _dec_blocks_1_Resh..1_output_0 (Reshape, Reshape)                               [b:1,h:1,w:1,c:256]                                                    _dec_blocks_1_Slic..ear_Output   |                                                        
------ ------------------------------------------------------------------------------- ------------------------------- ---------------------- ------------- -------------------------------- --- ----------------------- ------------------------------ ---------------------------------------------------------------------------------------------------------------------------------------------------------------------------------------------------------------------------- 
170    _dec_blocks_1_Resh..ear_Output (Conversion, QuantizeLinear)                     [b:1,h:1,w:1,c:256]                                              512   _dec_blocks_1_Resh..1_output_0   |                         -512(-100.0%)                  
------ ------------------------------------------------------------------------------- ------------------------------- ---------------------- ------------- -------------------------------- --- ----------------------- ------------------------------ ---------------------------------------------------------------------------------------------------------------------------------------------------------------------------------------------------------------------------- 
171    _dec_blocks_1_Resh..ear_Output (Conversion, DequantizeLinear)                   [b:1,h:1,w:1,c:256]                                              512   _dec_blocks_1_Resh..ear_Output   |                         -512(-100.0%)                  
------ ------------------------------------------------------------------------------- ------------------------------- ---------------------- ------------- -------------------------------- --- ----------------------- ------------------------------ ---------------------------------------------------------------------------------------------------------------------------------------------------------------------------------------------------------------------------- 
172    _dec_blocks_4_Slice_1_output_0 (Slice, Slice)                                   [b:1,c:128]                                                            _dec_blocks_4_labe..ear_Output   |                                                        Slice_[33]                                                                                                                                                                                                                   
------ ------------------------------------------------------------------------------- ------------------------------- ---------------------- ------------- -------------------------------- --- ----------------------- ------------------------------ ---------------------------------------------------------------------------------------------------------------------------------------------------------------------------------------------------------------------------- 
173    _dec_blocks_4_Slic..ear_Output (Conversion, QuantizeLinear)                     [b:1,c:128]                                                      256   _dec_blocks_4_Slice_1_output_0   |                         -256(-100.0%)                  
------ ------------------------------------------------------------------------------- ------------------------------- ---------------------- ------------- -------------------------------- --- ----------------------- ------------------------------ ---------------------------------------------------------------------------------------------------------------------------------------------------------------------------------------------------------------------------- 
174    _dec_blocks_4_Slic..ear_Output (Conversion, DequantizeLinear)                   [b:1,c:128]                                                      256   _dec_blocks_4_Slic..ear_Output   |                         -256(-100.0%)                  
------ ------------------------------------------------------------------------------- ------------------------------- ---------------------- ------------- -------------------------------- --- ----------------------- ------------------------------ ---------------------------------------------------------------------------------------------------------------------------------------------------------------------------------------------------------------------------- 
175    _dec_blocks_4_Resh..1_output_0 (Reshape, Reshape)                               [b:1,h:1,w:1,c:128]                                                    _dec_blocks_4_Slic..ear_Output   |                                                        
------ ------------------------------------------------------------------------------- ------------------------------- ---------------------- ------------- -------------------------------- --- ----------------------- ------------------------------ ---------------------------------------------------------------------------------------------------------------------------------------------------------------------------------------------------------------------------- 
…
283     563    transpose_a_dec_bl..conversion (Conversion)                         884,736    smul_s8_f32 
284     563    _dec_blocks_5_MatM..2_output_0 (Gemm)                       130,459,926,528   smul_f32_f32 
285     563    _dec_blocks_5_MatM..conversion (Conversion)                         589,824    smul_f32_s8 
286     569    _dec_blocks_5_Resh.._to_chlast (Transpose)                          147,456     smul_s8_s8 
287     572    _dec_blocks_5_MatM..3_output_0 (Dense)                           38,043,648     smul_s8_s8 
288     572    Transpose_out__dec..tput_0_out (Transpose)                          147,456     smul_s8_s8 
289     575    _dec_blocks_5_Add_2_output_0 (Eltwise/add)                              128       op_s8_s8 
290     581    _dec_blocks_5_Tran..5_output_0 (Transpose)                          147,456     smul_s8_s8 
291     584    _dec_blocks_5_Add_3_output_0 (Eltwise/add)                          294,912       op_s8_s8 
292     593    _dec_blocks_5_ln_w.._Transpose (Transpose)                          147,456     smul_s8_s8 
293     593    _dec_blocks_5_ln_w..conversion (Conversion)                         589,824    smul_s8_f32 
294     593    _dec_blocks_5_ln_w..t_0_Reduce (Reduce)                             294,912   smul_f32_f32 
295     593    _dec_blocks_5_ln_w..Reduce_Mul (ScaleBias)                            4,608   smul_f32_f32 
296     593    _dec_blocks_5_ln_w..tput_0_Sub (Eltwise/sub)                        294,912     op_f32_f32 
297     593    _dec_blocks_5_ln_w..tput_0_Mul (Eltwise/mul)                        294,912     op_f32_f32 
298     593    _dec_blocks_5_ln_w..0_Reduce_1 (Reduce)                             294,912   smul_f32_f32 
299     593    _dec_blocks_5_ln_w..duce_1_Mul (ScaleBias)                            4,608   smul_f32_f32 
300     593    _dec_blocks_5_ln_w..put_0_Sqrt (Nonlinearity)                        27,648     op_f32_f32 
301     593    _dec_blocks_5_ln_w..Reciprocal (Nonlinearity)                        11,520     op_f32_f32 
302     593    _dec_blocks_5_ln_w..ut_0_Mul_1 (Eltwise/mul)                        294,912     op_f32_f32 
303     593    _dec_blocks_5_ln_w..ut_0_Mul_2 (Eltwise/mul)                        294,912     op_f32_f32 
304     593    _dec_blocks_5_ln_w..ut_0_Add_1 (Eltwise/add)                        294,912     op_f32_f32 
305     594    _dec_blocks_5_ln_w..ear_Output (Conversion)                         589,824    smul_f32_s8 
306     596    Transpose_input__d..tput_0_out (Transpose)                          147,456     smul_s8_s8 
307     596    _dec_blocks_5_MatM..4_output_0 (Dense)                          114,130,944     smul_s8_s8 
308     596    Transpose_out__dec..tput_0_out (Transpose)                          442,368     smul_s8_s8 
309     599    _dec_blocks_5_Add_4_output_0 (Eltwise/add)                              384       op_s8_s8 
310     632    _dec_blocks_5_Slice_6_output_0 (Slice)                                    0     smul_s8_s8 
311     635    _dec_blocks_5_Resh.._to_chlast (Transpose)                          147,456     smul_s8_s8 
312     641    transpose_b_dec_bl..tput_0_out (Transpose)                          147,456     smul_s8_s8 
313     641    transpose_b_dec_bl..conversion (Conversion)                         589,824    smul_s8_f32 
314     614    _dec_blocks_5_Slice_5_output_0 (Slice)                                    0     smul_s8_s8 
315     617    _dec_blocks_5_Resh.._to_chlast (Transpose)                          147,456     smul_s8_s8 
316     620    _dec_blocks_5_Tran..9_output_0 (Transpose)                          147,456     smul_s8_s8 
317     623    _dec_blocks_5_Mul_11_output_0 (Eltwise/mul)                         294,912       op_s8_s8 
318     626    transpose_b_dec_bl..tput_0_out (Transpose)                          147,456     smul_s8_s8 
319     626    transpose_b_dec_bl..conversion (Conversion)                         589,824    smul_s8_f32 
320     602    _dec_blocks_5_Slice_4_output_0 (Slice)                                    0     smul_s8_s8 
321     605    _dec_blocks_5_Resh.._to_chlast (Transpose)                          147,456     smul_s8_s8 
322     608    _dec_blocks_5_Tran..7_output_0 (Transpose)                          147,456     smul_s8_s8 
323     611    _dec_blocks_5_Mul_10_output_0 (Eltwise/mul)                         294,912       op_s8_s8 
324     626    transpose_a_dec_bl..tput_0_out (Transpose)                          147,456     smul_s8_s8 
325     626    transpose_a_dec_bl..conversion (Conversion)                         589,824    smul_s8_f32 
326     626    _dec_blocks_5_MatM..5_output_0 (Gemm)                       130,460,073,984   smul_f32_f32 
327     626    _dec_blocks_5_MatM..conversion (Conversion)                         884,736    smul_f32_s8 
328     626    transpose_out_dec_..tput_0_out (Transpose)                          221,184     smul_s8_s8 
329     626    transpose_out_dec_..conversion (Conversion)                         884,736    smul_s8_f32 
330     629    _dec_blocks_5_Soft..1_output_0 (Nonlinearity)                     6,635,520     op_f32_f32 
331     629    _dec_blocks_5_Soft..conversion (Conversion)                         884,736    smul_f32_s8 
332     641    transpose_a_dec_bl..tput_0_out (Transpose)                          221,184     smul_s8_s8 
333     641    transpose_a_dec_bl..conversion (Conversion)                         884,736    smul_s8_f32 
334     641    _dec_blocks_5_MatM..6_output_0 (Gemm)                       130,459,926,528   smul_f32_f32 
335     641    _dec_blocks_5_MatM..conversion (Conversion)                         589,824    smul_f32_s8 
336     647    _dec_blocks_5_Resh.._to_chlast (Transpose)                          147,456     smul_s8_s8 
337     650    _dec_blocks_5_MatM..7_output_0 (Dense)                           38,043,648     smul_s8_s8 
338     650    Transpose_out__dec..tput_0_out (Transpose)                          147,456     smul_s8_s8 
339     653    _dec_blocks_5_Add_6_output_0 (Eltwise/add)                              128       op_s8_s8 
340     659    _dec_blocks_5_Tran..1_output_0 (Transpose)                          147,456     smul_s8_s8 
341     662    _dec_blocks_5_Add_7_output_0 (Eltwise/add)                          294,912       op_s8_s8 
342     665    _dec_blocks_6_conv..v_output_0 (Conv2D)                         679,477,504     smul_s8_s8 
343     668    _dec_blocks_6_Dept.._to_chlast (Transpose)                          294,912     smul_s8_s8 
344     670    _dec_blocks_6_Dept.._to_chlast (Transpose)                          294,912     smul_s8_s8 
345     671    _dec_blocks_6_norm..to_chfirst (Transpose)                          294,912     smul_s8_s8 
346     671    _dec_blocks_6_norm..conversion (Conversion)                       1,179,648    smul_s8_f32 
347     674    _dec_blocks_6_norm..n_output_0 (InstanceNormalization)            7,077,888   smul_f32_f32 
348     674    _dec_blocks_6_norm..conversion (Conversion)                       1,179,648    smul_f32_s8 
349     677    _dec_blocks_6_norm.._to_chlast (Transpose)                          294,912     smul_s8_s8 
350     677    _dec_blocks_6_norm..to_chfirst (Transpose)                          294,912     smul_s8_s8 
351     680    _dec_blocks_6_norm..l_output_0 (Eltwise/mul)                        589,824       op_s8_s8 
352     683    _dec_blocks_6_norm..d_output_0 (Eltwise/add)                        589,824       op_s8_s8 
353     686    _dec_blocks_6_Sigmoid_output_0 (Nonlinearity)                       589,824       op_s8_s8 
354     689    _dec_blocks_6_Mul_output_0 (Eltwise/mul)                            589,824       op_s8_s8 
355     692    _dec_blocks_7_norm.._to_chlast (Transpose)                          294,912     smul_s8_s8 
356     692    _dec_blocks_7_norm..to_chfirst (Transpose)                          294,912     smul_s8_s8 
357     692    _dec_blocks_7_norm..conversion (Conversion)                       1,179,648    smul_s8_f32 
358     695    _dec_blocks_7_norm..n_output_0 (InstanceNormalization)            7,077,888   smul_f32_f32 
359     695    _dec_blocks_7_norm..conversion (Conversion)                       1,179,648    smul_f32_s8 
360     698    _dec_blocks_7_norm.._to_chlast (Transpose)                          294,912     smul_s8_s8 
361     698    _dec_blocks_7_norm..to_chfirst (Transpose)                          294,912     smul_s8_s8 
362     701    _dec_blocks_7_norm..l_output_0 (Eltwise/mul)                        589,824       op_s8_s8 
363     704    _dec_blocks_7_norm..d_output_0 (Eltwise/add)                        589,824       op_s8_s8 
364     707    _dec_blocks_7_Sigmoid_output_0 (Nonlinearity)                       589,824       op_s8_s8 
365     710    _dec_blocks_7_Mul_output_0 (Eltwise/mul)                            589,824       op_s8_s8 
366     713    _dec_blocks_7_conv..v_output_0 (Conv2D)                         339,738,688     smul_s8_s8 
367     716    _dec_blocks_7_Mul_3_output_0 (Eltwise/mul)                          589,824       op_s8_s8 
368     719    _dec_blocks_7_Add_2_output_0 (Eltwise/add)                          589,824       op_s8_s8 
369     722    _dec_blocks_7_norm.._to_chlast (Transpose)                          294,912     smul_s8_s8 
370     722    _dec_blocks_7_norm..to_chfirst (Transpose)                          294,912     smul_s8_s8 
371     722    _dec_blocks_7_norm..conversion (Conversion)                       1,179,648    smul_s8_f32 
372     725    _dec_blocks_7_norm..n_output_0 (InstanceNormalization)            7,077,888   smul_f32_f32 
373     725    _dec_blocks_7_norm..conversion (Conversion)                       1,179,648    smul_f32_s8 
374     728    _dec_blocks_7_norm.._to_chlast (Transpose)                          294,912     smul_s8_s8 
375     728    _dec_blocks_7_norm..to_chfirst (Transpose)                          294,912     smul_s8_s8 
376     731    _dec_blocks_7_norm..l_output_0 (Eltwise/mul)                        589,824       op_s8_s8 
377     734    _dec_blocks_7_norm..d_output_0 (Eltwise/add)                        589,824       op_s8_s8 
378     737    _dec_blocks_7_Sigm..1_output_0 (Nonlinearity)                       589,824       op_s8_s8 
379     740    _dec_blocks_7_Mul_4_output_0 (Eltwise/mul)                          589,824       op_s8_s8 
380     743    _dec_blocks_7_conv..v_output_0 (Conv2D)                         339,738,688     smul_s8_s8 
381     746    _dec_blocks_7_Add_3_output_0 (Eltwise/add)                          589,824       op_s8_s8 
382     746    _dec_blocks_7_Add_..conversion (Conversion)                       1,179,648    smul_s8_f32 
383     749    _dec_blocks_7_resc..b_output_0 (Eltwise/sub)                        589,824     op_f32_f32 
384     750    _dec_blocks_7_resc..1_output_0 (Eltwise/div)                      2,949,120     op_f32_f32 
385     750    _dec_blocks_7_resc..conversion (Conversion)                       1,179,648    smul_f32_s8 
386     753    _dec_out_Conv_output_0 (Conv2D)                                  15,925,251     smul_s8_s8 
387     753    _dec_out_Conv_outp..conversion (Conversion)                          55,296    smul_s8_f32 
388     756    reconstruction (Nonlinearity)                                       276,480     op_f32_f32 
389     1      reconstruction_Transpose_0 (Transpose)                               13,824   smul_f32_f32 
------- ------ --------------------------------------------------------- ----------------- -------------- 
total                                                                      559,294,868,307 

Number of operation types
---------------- ----------------- ----------- 
operation type                   #           % 
---------------- ----------------- ----------- 
smul_s8_s8           4,720,402,707        0.8% 
smul_s8_f32             19,377,536        0.0% 
smul_f32_f32       554,495,238,016       99.1% 
smul_f32_s8             15,783,936        0.0% 
op_s8_s8                18,144,960        0.0% 
op_f32_f32              25,921,152        0.0% 

Complexity report (model)
------ ------------------------------------------ ------------------------- ------------------------- ------------------------------------------------------------------- 
m_id   name                                       c_macc                    c_rom                     c_id                                                                
------ ------------------------------------------ ------------------------- ------------------------- ------------------------------------------------------------------- 
75     vae_cond_proj_0_bias                       |                  0.0%   |                  2.4%   [10, 11]                                                            
100    vae_cond_proj_2_bias                       |                  0.0%   |                  2.2%   [15]                                                                
103    vae_dec_blocks_1_label_proj_0_bias         |                  0.0%   ||||               8.6%   [16, 17]                                                            
109    vae_dec_blocks_4_label_proj_0_bias         |                  0.0%   ||                 4.3%   [26, 27]                                                            
115    vae_dec_blocks_7_label_proj_0_bias         |                  0.0%   |                  2.1%   [36, 37]                                                            
124    vae_dec_blocks_1_label_proj_2_bias         |                  0.0%   ||||               8.6%   [21, 22]                                                            
139    vae_dec_blocks_4_label_proj_2_bias         |                  0.0%   |                  2.1%   [31, 32]                                                            
154    vae_dec_blocks_7_label_proj_2_bias         |                  0.0%   |                  0.5%   [41, 42]                                                            
265    onnxSub_1062                               |                  0.0%   |                  0.0%   [95]                                                                
266    _dec_blocks_1_rescale_Div_output_0         |                  0.0%   |                  0.0%   [96, 97]                                                            
273    vae_dec_blocks_2_ln_h_bias                 |                  0.0%   |                  0.0%   [98, 99, 100, 101, 102, 103, 104, 105, 106, 107, 108, 109, 110]     
351    vae_dec_blocks_2_ln_w_bias                 |                  0.0%   |                  0.0%   [148, 149, 150, 151, 152, 153, 154, 155, 156, 157, 158, 159, 160]   
507    onnxSub_1095                               |                  0.0%   |                  0.0%   [239]                                                               
508    _dec_blocks_4_rescale_Div_output_0         |                  0.0%   |                  0.0%   [240, 241]                                                          
515    vae_dec_blocks_5_ln_h_bias                 |                  0.0%   |                  0.0%   [242, 243, 244, 245, 246, 247, 248, 249, 250, 251, 252, 253, 254]   
593    vae_dec_blocks_5_ln_w_bias                 |                  0.0%   |                  0.0%   [292, 293, 294, 295, 296, 297, 298, 299, 300, 301, 302, 303, 304]   
749    onnxSub_1128                               |                  0.0%   |                  0.0%   [383]                                                               
750    _dec_blocks_7_rescale_Div_output_0         |                  0.0%   |                  0.0%   [384, 385]                                                          
1      _dec_blocks_1_Constant_8_out..tput_const   |                  0.0%   |                  0.0%   [389]                                                               
66     _latent_norm_Reshape_output_0              |                  0.0%   |                  0.0%   [46, 47, 48]                                                        
69     _Concat_output_0                           |                  0.0%   |                  0.0%   [8, 9]                                                              
72     _latent_norm_InstanceNormali..n_output_0   |                  0.0%   |                  0.0%   [49, 50]                                                            
81     _cond_proj_cond_proj_1_Sigmoid_output_0    |                  0.0%   |                  0.0%   [12]                                                                
84     _latent_norm_Mul_output_0                  |                  0.0%   |                  0.0%   [51]                                                                
88     _latent_norm_Add_output_0                  |                  0.0%   |                  0.0%   [52]                                                                
91     _dec_in_Conv_output_0                      |                  0.0%   |                  0.3%   [53]                                                                
94     _dec_blocks_0_conv_Conv_output_0           |                  0.1%   ||||||||||||||||  38.6%   [54]                                                                
97     _cond_proj_cond_proj_1_Mul_output_0        |                  0.0%   |                  0.0%   [13, 14]                                                            
106    _dec_blocks_1_label_proj_lab..d_output_0   |                  0.0%   |                  0.0%   [18]                                                                
112    _dec_blocks_4_label_proj_lab..d_output_0   |                  0.0%   |                  0.0%   [28]                                                                
118    _dec_blocks_7_label_proj_lab..d_output_0   |                  0.0%   |                  0.0%   [38]                                                                
121    _dec_blocks_1_label_proj_lab..l_output_0   |                  0.0%   |                  0.0%   [19, 20]                                                            
127    _dec_blocks_1_Slice_output_0               |                  0.0%   |                  0.0%   [24]                                                                
133    _dec_blocks_1_Add_1_output_0               |                  0.0%   |                  0.0%   [25]                                                                
136    _dec_blocks_4_label_proj_lab..l_output_0   |                  0.0%   |                  0.0%   [29, 30]                                                            
142    _dec_blocks_4_Slice_output_0               |                  0.0%   |                  0.0%   [34]                                                                
148    _dec_blocks_4_Add_1_output_0               |                  0.0%   |                  0.0%   [35]                                                                
151    _dec_blocks_7_label_proj_lab..l_output_0   |                  0.0%   |                  0.0%   [39, 40]                                                            
157    _dec_blocks_7_Slice_output_0               |                  0.0%   |                  0.0%   [44]                                                                
163    _dec_blocks_7_Add_1_output_0               |                  0.0%   |                  0.0%   [45]                                                                
166    _dec_blocks_1_Slice_1_output_0             |                  0.0%   |                  0.0%   [23]                                                                
172    _dec_blocks_4_Slice_1_output_0             |                  0.0%   |                  0.0%   [33]                                                                
178    _dec_blocks_7_Slice_1_output_0             |                  0.0%   |                  0.0%   [43]                                                                
184    _dec_blocks_0_DepthToSpace_r1              |                  0.0%   |                  0.0%   [55]                                                                
186    _dec_blocks_0_DepthToSpace_output_0        |                  0.0%   |                  0.0%   [56]                                                                
187    _dec_blocks_0_norm_Reshape_output_0        |                  0.0%   |                  0.0%   [57, 58]                                                            
190    _dec_blocks_0_norm_InstanceN..n_output_0   |                  0.0%   |                  0.0%   [59, 60]                                                            
193    _dec_blocks_0_norm_Reshape_1_output_0      |                  0.0%   |                  0.0%   [61, 62]                                                            
196    _dec_blocks_0_norm_Mul_output_0            |                  0.0%   |                  0.0%   [63]                                                                
199    _dec_blocks_0_norm_Add_output_0            |                  0.0%   |                  0.0%   [64]                                                                
202    _dec_blocks_0_Sigmoid_output_0             |                  0.0%   |                  0.0%   [65]                                                                
205    _dec_blocks_0_Mul_output_0                 |                  0.0%   |                  0.0%   [66]                                                                
208    _dec_blocks_1_norm1_Reshape_output_0       |                  0.0%   |                  0.0%   [67, 68, 69]                                                        
211    _dec_blocks_1_norm1_Instance..n_output_0   |                  0.0%   |                  0.0%   [70, 71]                                                            
214    _dec_blocks_1_norm1_Reshape_1_output_0     |                  0.0%   |                  0.0%   [72, 73]                                                            
217    _dec_blocks_1_norm1_Mul_output_0           |                  0.0%   |                  0.0%   [74]                                                                
220    _dec_blocks_1_norm1_Add_output_0           |                  0.0%   |                  0.0%   [75]                                                                
223    _dec_blocks_1_Sigmoid_output_0             |                  0.0%   |                  0.0%   [76]                                                                
226    _dec_blocks_1_Mul_output_0                 |                  0.0%   |                  0.0%   [77]                                                                
229    _dec_blocks_1_conv1_Conv_output_0          |                  0.1%   ||                 4.8%   [78]                                                                
232    _dec_blocks_1_Mul_3_output_0               |                  0.0%   |                  0.0%   [79]                                                                
235    _dec_blocks_1_Add_2_output_0               |                  0.0%   |                  0.0%   [80]                                                                
238    _dec_blocks_1_norm2_Reshape_output_0       |                  0.0%   |                  0.0%   [81, 82, 83]                                                        
241    _dec_blocks_1_norm2_Instance..n_output_0   |                  0.0%   |                  0.0%   [84, 85]                                                            
244    _dec_blocks_1_norm2_Reshape_1_output_0     |                  0.0%   |                  0.0%   [86, 87]                                                            
247    _dec_blocks_1_norm2_Mul_output_0           |                  0.0%   |                  0.0%   [88]                                                                
250    _dec_blocks_1_norm2_Add_output_0           |                  0.0%   |                  0.0%   [89]                                                                
253    _dec_blocks_1_Sigmoid_1_output_0           |                  0.0%   |                  0.0%   [90]                                                                
256    _dec_blocks_1_Mul_4_output_0               |                  0.0%   |                  0.0%   [91]                                                                
259    _dec_blocks_1_conv2_Conv_output_0          |                  0.1%   ||                 4.8%   [92]                                                                
262    _dec_blocks_1_Add_3_output_0               |                  0.0%   |                  0.0%   [93, 94]                                                            
274    _dec_blocks_2_ln_h_LayerNorm..ear_Output   |                  0.0%   |                  0.0%   [111]                                                               
276    _dec_blocks_2_MatMul_output_0              |                  0.0%   |                  1.6%   [112, 113, 114]                                                     
279    _dec_blocks_2_Add_output_0                 |                  0.0%   |                  0.0%   [115]                                                               
282    _dec_blocks_2_Slice_output_0               |                  0.0%   |                  0.0%   [126]                                                               
285    _dec_blocks_2_Reshape_1_output_0           |                  0.0%   |                  0.0%   [127]                                                               
288    _dec_blocks_2_Transpose_1_output_0         |                  0.0%   |                  0.0%   [128]                                                               
291    _dec_blocks_2_Mul_4_output_0               |                  0.0%   |                  0.0%   [129]                                                               
294    _dec_blocks_2_Slice_1_output_0             |                  0.0%   |                  0.0%   [120]                                                               
297    _dec_blocks_2_Reshape_2_output_0           |                  0.0%   |                  0.0%   [121]                                                               
300    _dec_blocks_2_Transpose_3_output_0         |                  0.0%   |                  0.0%   [122]                                                               
303    _dec_blocks_2_Mul_5_output_0               |                  0.0%   |                  0.0%   [123]                                                               
306    _dec_blocks_2_MatMul_1_output_0            |                  1.5%   |                  0.0%   [7, 124, 125, 130, 131, 132, 133, 134, 135]                         
309    _dec_blocks_2_Softmax_output_0             |                  0.0%   |                  0.0%   [136, 137]                                                          
312    _dec_blocks_2_Slice_2_output_0             |                  0.0%   |                  0.0%   [116]                                                               
315    _dec_blocks_2_Reshape_3_output_0           |                  0.0%   |                  0.0%   [117]                                                               
321    _dec_blocks_2_MatMul_2_output_0            |                  1.5%   |                  0.0%   [6, 118, 119, 138, 139, 140, 141]                                   
327    _dec_blocks_2_Reshape_4_output_0           |                  0.0%   |                  0.0%   [142]                                                               
330    _dec_blocks_2_MatMul_3_output_0            |                  0.0%   |                  0.5%   [143, 144]                                                          
333    _dec_blocks_2_Add_2_output_0               |                  0.0%   |                  0.0%   [145]                                                               
339    _dec_blocks_2_Transpose_5_output_0         |                  0.0%   |                  0.0%   [146]                                                               
342    _dec_blocks_2_Add_3_output_0               |                  0.0%   |                  0.0%   [147]                                                               
352    _dec_blocks_2_ln_w_LayerNorm..ear_Output   |                  0.0%   |                  0.0%   [161]                                                               
354    _dec_blocks_2_MatMul_4_output_0            |                  0.0%   |                  1.6%   [162, 163, 164]                                                     
357    _dec_blocks_2_Add_4_output_0               |                  0.0%   |                  0.0%   [165]                                                               
360    _dec_blocks_2_Slice_4_output_0             |                  0.0%   |                  0.0%   [176]                                                               
363    _dec_blocks_2_Reshape_7_output_0           |                  0.0%   |                  0.0%   [177]                                                               
366    _dec_blocks_2_Transpose_7_output_0         |                  0.0%   |                  0.0%   [178]                                                               
369    _dec_blocks_2_Mul_10_output_0              |                  0.0%   |                  0.0%   [179]                                                               
372    _dec_blocks_2_Slice_5_output_0             |                  0.0%   |                  0.0%   [170]                                                               
375    _dec_blocks_2_Reshape_8_output_0           |                  0.0%   |                  0.0%   [171]                                                               
378    _dec_blocks_2_Transpose_9_output_0         |                  0.0%   |                  0.0%   [172]                                                               
381    _dec_blocks_2_Mul_11_output_0              |                  0.0%   |                  0.0%   [173]                                                               
384    _dec_blocks_2_MatMul_5_output_0            |                  1.5%   |                  0.0%   [5, 174, 175, 180, 181, 182, 183, 184, 185]                         
387    _dec_blocks_2_Softmax_1_output_0           |                  0.0%   |                  0.0%   [186, 187]                                                          
390    _dec_blocks_2_Slice_6_output_0             |                  0.0%   |                  0.0%   [166]                                                               
393    _dec_blocks_2_Reshape_9_output_0           |                  0.0%   |                  0.0%   [167]                                                               
399    _dec_blocks_2_MatMul_6_output_0            |                  1.5%   |                  0.0%   [4, 168, 169, 188, 189, 190, 191]                                   
405    _dec_blocks_2_Reshape_10_output_0          |                  0.0%   |                  0.0%   [192]                                                               
408    _dec_blocks_2_MatMul_7_output_0            |                  0.0%   |                  0.5%   [193, 194]                                                          
411    _dec_blocks_2_Add_6_output_0               |                  0.0%   |                  0.0%   [195]                                                               
417    _dec_blocks_2_Transpose_11_output_0        |                  0.0%   |                  0.0%   [196]                                                               
420    _dec_blocks_2_Add_7_output_0               |                  0.0%   |                  0.0%   [197]                                                               
423    _dec_blocks_3_conv_Conv_output_0           |                  0.1%   ||||               9.6%   [198]                                                               
426    _dec_blocks_3_DepthToSpace_r1              |                  0.0%   |                  0.0%   [199]                                                               
428    _dec_blocks_3_DepthToSpace_output_0        |                  0.0%   |                  0.0%   [200]                                                               
429    _dec_blocks_3_norm_Reshape_output_0        |                  0.0%   |                  0.0%   [201, 202]                                                          
432    _dec_blocks_3_norm_InstanceN..n_output_0   |                  0.0%   |                  0.0%   [203, 204]                                                          
435    _dec_blocks_3_norm_Reshape_1_output_0      |                  0.0%   |                  0.0%   [205, 206]                                                          
438    _dec_blocks_3_norm_Mul_output_0            |                  0.0%   |                  0.0%   [207]                                                               
441    _dec_blocks_3_norm_Add_output_0            |                  0.0%   |                  0.0%   [208]                                                               
444    _dec_blocks_3_Sigmoid_output_0             |                  0.0%   |                  0.0%   [209]                                                               
447    _dec_blocks_3_Mul_output_0                 |                  0.0%   |                  0.0%   [210]                                                               
450    _dec_blocks_4_norm1_Reshape_output_0       |                  0.0%   |                  0.0%   [211, 212, 213]                                                     
453    _dec_blocks_4_norm1_Instance..n_output_0   |                  0.0%   |                  0.0%   [214, 215]                                                          
456    _dec_blocks_4_norm1_Reshape_1_output_0     |                  0.0%   |                  0.0%   [216, 217]                                                          
459    _dec_blocks_4_norm1_Mul_output_0           |                  0.0%   |                  0.0%   [218]                                                               
462    _dec_blocks_4_norm1_Add_output_0           |                  0.0%   |                  0.0%   [219]                                                               
465    _dec_blocks_4_Sigmoid_output_0             |                  0.0%   |                  0.0%   [220]                                                               
468    _dec_blocks_4_Mul_output_0                 |                  0.0%   |                  0.0%   [221]                                                               
471    _dec_blocks_4_conv1_Conv_output_0          |                  0.1%   |                  1.2%   [222]                                                               
474    _dec_blocks_4_Mul_3_output_0               |                  0.0%   |                  0.0%   [223]                                                               
477    _dec_blocks_4_Add_2_output_0               |                  0.0%   |                  0.0%   [224]                                                               
480    _dec_blocks_4_norm2_Reshape_output_0       |                  0.0%   |                  0.0%   [225, 226, 227]                                                     
483    _dec_blocks_4_norm2_Instance..n_output_0   |                  0.0%   |                  0.0%   [228, 229]                                                          
486    _dec_blocks_4_norm2_Reshape_1_output_0     |                  0.0%   |                  0.0%   [230, 231]                                                          
489    _dec_blocks_4_norm2_Mul_output_0           |                  0.0%   |                  0.0%   [232]                                                               
492    _dec_blocks_4_norm2_Add_output_0           |                  0.0%   |                  0.0%   [233]                                                               
495    _dec_blocks_4_Sigmoid_1_output_0           |                  0.0%   |                  0.0%   [234]                                                               
498    _dec_blocks_4_Mul_4_output_0               |                  0.0%   |                  0.0%   [235]                                                               
501    _dec_blocks_4_conv2_Conv_output_0          |                  0.1%   |                  1.2%   [236]                                                               
504    _dec_blocks_4_Add_3_output_0               |                  0.0%   |                  0.0%   [237, 238]                                                          
516    _dec_blocks_5_ln_h_LayerNorm..ear_Output   |                  0.0%   |                  0.0%   [255]                                                               
518    _dec_blocks_5_MatMul_output_0              |                  0.0%   |                  0.4%   [256, 257, 258]                                                     
521    _dec_blocks_5_Add_output_0                 |                  0.0%   |                  0.0%   [259]                                                               
524    _dec_blocks_5_Slice_output_0               |                  0.0%   |                  0.0%   [270]                                                               
527    _dec_blocks_5_Reshape_1_output_0           |                  0.0%   |                  0.0%   [271]                                                               
530    _dec_blocks_5_Transpose_1_output_0         |                  0.0%   |                  0.0%   [272]                                                               
533    _dec_blocks_5_Mul_4_output_0               |                  0.0%   |                  0.0%   [273]                                                               
536    _dec_blocks_5_Slice_1_output_0             |                  0.0%   |                  0.0%   [264]                                                               
539    _dec_blocks_5_Reshape_2_output_0           |                  0.0%   |                  0.0%   [265]                                                               
542    _dec_blocks_5_Transpose_3_output_0         |                  0.0%   |                  0.0%   [266]                                                               
545    _dec_blocks_5_Mul_5_output_0               |                  0.0%   |                  0.0%   [267]                                                               
548    _dec_blocks_5_MatMul_1_output_0            ||||||||||||||||  23.3%   |                  0.0%   [3, 268, 269, 274, 275, 276, 277, 278, 279]                         
551    _dec_blocks_5_Softmax_output_0             |                  0.0%   |                  0.0%   [280, 281]                                                          
554    _dec_blocks_5_Slice_2_output_0             |                  0.0%   |                  0.0%   [260]                                                               
557    _dec_blocks_5_Reshape_3_output_0           |                  0.0%   |                  0.0%   [261]                                                               
563    _dec_blocks_5_MatMul_2_output_0            |||||||||||||||   23.3%   |                  0.0%   [2, 262, 263, 282, 283, 284, 285]                                   
569    _dec_blocks_5_Reshape_4_output_0           |                  0.0%   |                  0.0%   [286]                                                               
572    _dec_blocks_5_MatMul_3_output_0            |                  0.0%   |                  0.1%   [287, 288]                                                          
575    _dec_blocks_5_Add_2_output_0               |                  0.0%   |                  0.0%   [289]                                                               
581    _dec_blocks_5_Transpose_5_output_0         |                  0.0%   |                  0.0%   [290]                                                               
584    _dec_blocks_5_Add_3_output_0               |                  0.0%   |                  0.0%   [291]                                                               
594    _dec_blocks_5_ln_w_LayerNorm..ear_Output   |                  0.0%   |                  0.0%   [305]                                                               
596    _dec_blocks_5_MatMul_4_output_0            |                  0.0%   |                  0.4%   [306, 307, 308]                                                     
599    _dec_blocks_5_Add_4_output_0               |                  0.0%   |                  0.0%   [309]                                                               
602    _dec_blocks_5_Slice_4_output_0             |                  0.0%   |                  0.0%   [320]                                                               
605    _dec_blocks_5_Reshape_7_output_0           |                  0.0%   |                  0.0%   [321]                                                               
608    _dec_blocks_5_Transpose_7_output_0         |                  0.0%   |                  0.0%   [322]                                                               
611    _dec_blocks_5_Mul_10_output_0              |                  0.0%   |                  0.0%   [323]                                                               
614    _dec_blocks_5_Slice_5_output_0             |                  0.0%   |                  0.0%   [314]                                                               
617    _dec_blocks_5_Reshape_8_output_0           |                  0.0%   |                  0.0%   [315]                                                               
620    _dec_blocks_5_Transpose_9_output_0         |                  0.0%   |                  0.0%   [316]                                                               
623    _dec_blocks_5_Mul_11_output_0              |                  0.0%   |                  0.0%   [317]                                                               
626    _dec_blocks_5_MatMul_5_output_0            ||||||||||||||||  23.3%   |                  0.0%   [1, 318, 319, 324, 325, 326, 327, 328, 329]                         
629    _dec_blocks_5_Softmax_1_output_0           |                  0.0%   |                  0.0%   [330, 331]                                                          
632    _dec_blocks_5_Slice_6_output_0             |                  0.0%   |                  0.0%   [310]                                                               
635    _dec_blocks_5_Reshape_9_output_0           |                  0.0%   |                  0.0%   [311]                                                               
641    _dec_blocks_5_MatMul_6_output_0            |||||||||||||||   23.3%   |                  0.0%   [0, 312, 313, 332, 333, 334, 335]                                   
647    _dec_blocks_5_Reshape_10_output_0          |                  0.0%   |                  0.0%   [336]                                                               
650    _dec_blocks_5_MatMul_7_output_0            |                  0.0%   |                  0.1%   [337, 338]                                                          
653    _dec_blocks_5_Add_6_output_0               |                  0.0%   |                  0.0%   [339]                                                               
659    _dec_blocks_5_Transpose_11_output_0        |                  0.0%   |                  0.0%   [340]                                                               
662    _dec_blocks_5_Add_7_output_0               |                  0.0%   |                  0.0%   [341]                                                               
665    _dec_blocks_6_conv_Conv_output_0           |                  0.1%   |                  2.4%   [342]                                                               
668    _dec_blocks_6_DepthToSpace_r1              |                  0.0%   |                  0.0%   [343]                                                               
670    _dec_blocks_6_DepthToSpace_output_0        |                  0.0%   |                  0.0%   [344]                                                               
671    _dec_blocks_6_norm_Reshape_output_0        |                  0.0%   |                  0.0%   [345, 346]                                                          
674    _dec_blocks_6_norm_InstanceN..n_output_0   |                  0.0%   |                  0.0%   [347, 348]                                                          
677    _dec_blocks_6_norm_Reshape_1_output_0      |                  0.0%   |                  0.0%   [349, 350]                                                          
680    _dec_blocks_6_norm_Mul_output_0            |                  0.0%   |                  0.0%   [351]                                                               
683    _dec_blocks_6_norm_Add_output_0            |                  0.0%   |                  0.0%   [352]                                                               
686    _dec_blocks_6_Sigmoid_output_0             |                  0.0%   |                  0.0%   [353]                                                               
689    _dec_blocks_6_Mul_output_0                 |                  0.0%   |                  0.0%   [354]                                                               
692    _dec_blocks_7_norm1_Reshape_output_0       |                  0.0%   |                  0.0%   [355, 356, 357]                                                     
695    _dec_blocks_7_norm1_Instance..n_output_0   |                  0.0%   |                  0.0%   [358, 359]                                                          
698    _dec_blocks_7_norm1_Reshape_1_output_0     |                  0.0%   |                  0.0%   [360, 361]                                                          
701    _dec_blocks_7_norm1_Mul_output_0           |                  0.0%   |                  0.0%   [362]                                                               
704    _dec_blocks_7_norm1_Add_output_0           |                  0.0%   |                  0.0%   [363]                                                               
707    _dec_blocks_7_Sigmoid_output_0             |                  0.0%   |                  0.0%   [364]                                                               
710    _dec_blocks_7_Mul_output_0                 |                  0.0%   |                  0.0%   [365]                                                               
713    _dec_blocks_7_conv1_Conv_output_0          |                  0.1%   |                  0.3%   [366]                                                               
716    _dec_blocks_7_Mul_3_output_0               |                  0.0%   |                  0.0%   [367]                                                               
719    _dec_blocks_7_Add_2_output_0               |                  0.0%   |                  0.0%   [368]                                                               
722    _dec_blocks_7_norm2_Reshape_output_0       |                  0.0%   |                  0.0%   [369, 370, 371]                                                     
725    _dec_blocks_7_norm2_Instance..n_output_0   |                  0.0%   |                  0.0%   [372, 373]                                                          
728    _dec_blocks_7_norm2_Reshape_1_output_0     |                  0.0%   |                  0.0%   [374, 375]                                                          
731    _dec_blocks_7_norm2_Mul_output_0           |                  0.0%   |                  0.0%   [376]                                                               
734    _dec_blocks_7_norm2_Add_output_0           |                  0.0%   |                  0.0%   [377]                                                               
737    _dec_blocks_7_Sigmoid_1_output_0           |                  0.0%   |                  0.0%   [378]                                                               
740    _dec_blocks_7_Mul_4_output_0               |                  0.0%   |                  0.0%   [379]                                                               
743    _dec_blocks_7_conv2_Conv_output_0          |                  0.1%   |                  0.3%   [380]                                                               
746    _dec_blocks_7_Add_3_output_0               |                  0.0%   |                  0.0%   [381, 382]                                                          
753    _dec_out_Conv_output_0                     |                  0.0%   |                  0.0%   [386, 387]                                                          
756    reconstruction                             |                  0.0%   |                  0.0%   [388]                                                               
------ ------------------------------------------ ------------------------- ------------------------- ------------------------------------------------------------------- 
macc=559,294,868,307 weights=12,248,936 act=7,373,408 ram_io=0

Generated files (4)
---------------------------------------------------------------------- 
/home/pc/sby/enhancedoptimaltransport/st_ai_output/network_data.bin    
/home/pc/sby/enhancedoptimaltransport/st_ai_output/network.h           
/home/pc/sby/enhancedoptimaltransport/st_ai_output/network.c           
/home/pc/sby/enhancedoptimaltransport/st_ai_output/network_details.h   
